KukJinKim/RobotBehavior5.onnx (onnx, 285759 bytes, 8 tensors)

action_model._discrete_distribution.branches.0.bias f4 [7]
00000000: 2676 e13b 7375 babb 4f13 a23c 44ef 403c
00000010: d1e8 273b 6223 cdbb 518c e13c
0.0068805395 -0.0056902706 0.019784598 0.011775795 0.0025620947 -0.0062603215 0.027532728

action_model._discrete_distribution.branches.0.weight f4 [7, 256]
00000000: 7241 e63b 5af1 713c 0fd9 4dbd cf0d 95bb
00000010: 5d1b 773c d5b6 cdbb 5e48 cabc 952b 043d
00000020: a0a7 3eba 7cb4 e33b 375d b83c b161 8e3b
00000030: 055d c23c 4b37 9d3c 8789 093c 0e99 29bd
00000040: 81e3 a3b9 70e3 9c3d 4d61 81bc eb12 d73b
00000050: 81f4 7d3d 42b6 253d 3ffa 10bd abdb 473d
00000060: cea0 663c fb2f b03a 516c b73a 2c38 993c
00000070: 73ff 9abc f05c fb3c 210a 193c 723c 00bd
00000080: 8809 ac3b daa5 9f3c f6ac 51bc 477e 37bc
00000090: 8061 0e3d 1f54 9b3b dd56 823c 0089 af3c
000000a0: 9d88 a33c 21b5 50bc d8de b5bc ca87 18bc
000000b0: bd07 573c f627 753a 9b1d 71bd 727a cbbc
000000c0: 32ac 64ba 6405 53b9 f856 e8bc 2213 d63c
000000d0: 23ba 1c3c 0545 71bc 6326 d7bc 113b 41bc
000000e0: ab56 833c f552 bfbc 2f6f 4c3c cab3 dd3c
000000f0: 4b7c 683a 226f 29bd 03d5 a7ba 47c5 5b3c
00000100: 3de6 4e3a 423b 3c3c 0c51 703b bf21 023d
00000110: 4ad3 8f3c 1c5d 12bc 36d6 9b3c 907c 0cbb
00000120: 29c4 263c 4297 3d3d bac2 803c 5c1c 4e3b
00000130: 1007 0d3d b693 3fbc 1deb 953b f612 8a3c
00000140: 4fd1 76bc a698 e03c e814 83bb c087 da3a
00000150: d6de 823d ea7d 183d 5d8d 0abc 73cb cd3a
00000160: f4a0 113c 4cd3 bf3b 2302 a1bb d481 1dbb
00000170: ea28 89bd f818 04bc 0850 463c e192 f43c
00000180: f55b 0a3c 85b9 e3bc ff2c b83b 5cf8 dabc
00000190: 18e5 a03c 4aa0 f23b 2786 1d3c ffc3 83bd
000001a0: 1390 e4bc 84fb 38bc 130e d6bb 689e a0bc
000001b0: 88e1 2bbd a4d8 d53c 2b6b 7e3c 3b6d 323b
000001c0: bc81 01bd df07 69bc aa95 433c 4046 a73c
000001d0: d38a d93c 7c35 0cbc 57c0 52bc 902e c43b
000001e0: dd32 7e3d 279a 8d3b b917 093d 636f abbc
000001f0: 9e8a d93c a871 de3c 1a3d aabc e8ea 313c
00000200: c316 853b cd96 613c 6826 3a3d e120 7ebc
00000210: 3157 603b a846 72ba 0846 a23c c4c7 3c3d
00000220: 318a 223b beb8 903b 8396 1b3a e7b9 803c
00000230: 3e2e 54bc 5e55 57bb 35b1 1f3c a4f4 be3b
00000240: 570b 36bc ae3f 7dbc aed0 6d3c 5797 63bc
00000250: 098f c03c f6ab 353d 07c5 ddbc aa11 70bc
00000260: 302f 1a3c 7466 133d a86a 4bbd d0c2 d13c
00000270: 2f5c e63c 0f9d a4bc 104a 3e3b df25 b8bb
00000280: aff8 0f3c 37a8 eb3c 4b85 d33c 0bf5 3e3c
00000290: df89 c43d 5965 42bb 263b 4d3b 1874 fa3c
000002a0: 4882 cbbb 2e49 5cbb 20e4 e9bb da50 b83c
000002b0: fd97 9c3c 0dac 94bb 0aa3 f33c a125 65b9
000002c0: c685 6dbc ceff 9fbc ba56 d63c 5ebf a7bb
000002d0: c8aa 3c3d 79be cbba 63ae e1bc c18f ff3c
000002e0: 5174 343d 9107 763b de35 2dbd 75b8 333c
000002f0: 3092 87ba 2c2a df39 6cc5 033d 8f31 9739
00000300: 15de 793c d209 bd3b 2635 353c f9f9 253d
00000310: 4339 8e3c 4eaa e63b 04db bc3c d5b4 d63c
00000320: 8cd7 fe3c fc3d 843c c66d b23c 2413 893c
00000330: e1ba ebbc 4d5c 20bc 7e7b 653d 0063 abba
00000340: 4ecd e03c effc 1abc 77b0 8dbc 1ccf dcbc
00000350: 075d 0c3c a7ce 6bbb 13e0 cfbb 5055 c1bc
00000360: f5d9 b43b 8845 683a f9df 203b 7d89 3fbb
00000370: bf95 f53c 0e3f b43a 3f24 94bb 1ed2 4bbc
00000380: d807 5abb 62e4 903c 2ac7 873b 32b4 5cbc
00000390: bc1d ae3c 204f 0dbc 7394 1fbd fc6a ecbb
000003a0: 1e10 013a 90db 253b fcdd f43c ce7a b63c
000003b0: e03f 423c a455 933b 5dda 07bc f1f0 113a
000003c0: ae7f 573d 80bb aebb 388b d03b 3785 4bbc
000003d0: 26fb 9a3b 13b7 afbb 7dcd 383c b7bf 1c3c
000003e0: 5b35 87bc 15f6 b23c d545 243b 63fe 2a3c
000003f0: baf2 e13c 5192 d73a e480 c8bc 0811 df3c
0.0070268447 0.014767015 -0.05025583 -0.0045487653 0.0150822075 -0.006277899 -0.02469271 0.032268126
-0.0007272903 0.0069490056 0.022505386 0.004345142 0.023725996 0.019191405 0.0083946055 -0.04140573
-0.00031259286 0.07660568 -0.015793467 0.0065635345 0.062000755 0.040457018 -0.035394903 0.048793476
0.014076425 0.0013442034 0.0013994073 0.018703543 -0.018920636 0.030683964 0.009340794 -0.031307645
0.0052501597 0.019488264 -0.012797585 -0.01119954 0.034760952 0.0047402526 0.01591056 0.021427631
0.019962603 -0.012738497 -0.022200987 -0.009309718 0.013124404 0.0009351963 -0.058866125 -0.02483866
-0.0008723169 -0.00020124536 -0.028361782 0.02613217 0.009565863 -0.014725928 -0.026263421 -0.011793868
0.016032537 -0.023354987 0.01247768 0.02706327 0.0008868619 -0.04136575 -0.0012804571 0.013413734
0.00078925845 0.011488738 0.0036669401 0.031770464 0.017556805 -0.008933332 0.019023042 -0.002143655
0.010178604 0.04628683 0.015717853 0.003145001 0.034430563 -0.011692932 0.004575147 0.016854744
-0.0150645515 0.027416538 -0.004000295 0.0016672537 0.06390159 0.037229456 -0.008456555 0.0015700891
0.008888472 0.005854046 -0.004913585 -0.0024033682 -0.06697257 -0.008062594 0.012104042 0.029855194
0.008444776 -0.027798424 0.0056205983 -0.026729755 0.01964049 0.007404362 0.009614504 -0.06433868
-0.027900731 -0.011290435 -0.0065324395 -0.019606784 -0.04196313 0.026104279 0.0155284805 0.002722575
-0.031617865 -0.014223068 0.011937538 0.02041924 0.026555454 -0.008557674 -0.01286324 0.005986996
0.062060226 0.004321355 0.03346989 -0.020927137 0.026555356 0.027153805 -0.020781089 0.010859229
0.0040615513 0.013768864 0.045446783 -0.015510769 0.0034231658 -0.0009242096 0.019808784 0.04608895
0.0024801607 0.0044165542 0.0005935209 0.015713645 -0.012950478 -0.003285728 0.009746839 0.0058275033
-0.011111102 -0.015457077 0.014515085 -0.013891063 0.023505704 0.044353448 -0.027071489 -0.014652649
0.009410664 0.03598638 -0.049662262 0.02560559 0.028120128 -0.020094423 0.0029035844 -0.005619749
0.008787318 0.028766735 0.025820395 0.0116551025 0.09596609 -0.0029662459 0.0031315773 0.030572936
-0.006210599 -0.0033612954 -0.0071377903 0.02249949 0.019115442 -0.0045371116 0.029740829 -0.0002185316
-0.014497226 -0.019531157 0.026164401 -0.0051192483 0.046061307 -0.0015544436 -0.027548974 0.031196477
0.04405624 0.003754113 -0.0422877 0.010969271 -0.001034325 0.00042565295 0.032170698 0.00028837888
0.015250702 0.005768993 0.011060035 0.040521596 0.017361289 0.007039345 0.023053654 0.026209274
0.03110864 0.016142838 0.02178086 0.01673276 -0.028775634 -0.009787631 0.056025974 -0.0013075769
0.027441647 -0.009459718 -0.017296059 -0.026954226 0.008567101 -0.0035981329 -0.0063438504 -0.02360025
0.0055191466 0.00088604586 0.002454756 -0.0029226237 0.029978631 0.0013751702 -0.0045209224 -0.012440233
-0.0033268835 0.017687026 0.0041436153 -0.013470696 0.021254413 -0.008624822 -0.03895993 -0.007214902
0.0004923361 0.0025307871 0.029891007 0.022275355 0.011856049 0.004496293 -0.008291808 0.0005567214
0.052612 -0.0053324103 0.0063642524 -0.012421898 0.0047296463 -0.0053624003 0.011279461 0.009567193
-0.016504934 0.021845857 0.0025066037 0.010436627 0.027581561 0.0016446804 -0.024475522 0.0272298

action_model._discrete_distribution.branches.1.bias f4 [2]
00000000: df20 56bc f120 563c
-0.0130693605 0.013069377

action_model._discrete_distribution.branches.1.weight f4 [2, 256]
00000000: 964e a1bc 9243 b93c 79d3 00bc 18a4 ae3b
00000010: 32f2 d53b 33ab a73c 5f34 953c 07f0 d5b9
00000020: 8aa4 c53b d0fa 43bc 4e3b 253c 698d 93bc
00000030: aa7d 99bc 65e1 12bd a965 b139 e67c 003d
00000040: 3da7 e63c f40f 29bc bdca 9bbc 1253 b63c
00000050: 219e c7bc 2b96 68bc c846 9f3c e9bb 1cbc
00000060: d20f 363c 57b1 d93c b356 48bb daea 7abc
00000070: cb68 a83c e6db f938 f864 e6bc 3160 033d
00000080: cbac 19bd 976d a3bc ee67 a5bb 9ec8 c03b
00000090: 142b 62bc 4e00 84bd 0406 08bd b46f 2c3c
000000a0: 0519 d63b 40a3 5c3b 3f5d 2e3d 8a9e abbc
000000b0: 92f6 76bd d1dd 43bd 0d8a dfbc 72a5 aab8
000000c0: 9761 0bba 15c0 473c cf10 063d 4a5c 46bd
000000d0: 86f6 513d c729 6bbc 8e27 8fbc a1cd 84bb
000000e0: 758d a5bc f2d6 0c3d 1113 22bc a0e0 85bd
000000f0: 957d 00bd 605c bd3c ace9 353c 0c02 48bc
00000100: 9e15 4abc 4597 5a3c 2aa0 193b 3281 013d
00000110: 9fa6 93bc 2f71 823c b71f 16bd 458e df3b
00000120: e91b edbb e1cd 7dbc f13a 80bc b235 353b
00000130: a5ab 45bc 3ed5 773b 3721 6abc f9c8 0dbb
00000140: 3bec 02bd f72d dfbc db2c 3f3b 015a 9c3b
00000150: c10a 693d 0647 e53c dfc4 13bc 6987 703b
00000160: e50c de3b c0e4 9b3a 1c7e 793c 0daf 3ebb
00000170: 0bce 073a 7cb3 71bc 3e03 0cbc aa4f db3b
00000180: f73e 623a 90be 70bd cee7 70bc 4168 183c
00000190: 1cc9 933a d255 c4bb 6a9e ae3a 8bcc 363d
000001a0: ac35 26bc 1a3f 843c b453 453a 4b2c d83b
000001b0: d311 363d 1faa f7bc 80ff 73bd d04f 853b
000001c0: c14e 0a3c 6ee3 3abc 1da0 a73c e577 efbb
000001d0: 3ae8 8b3c d74b babc 42ac 4a3d a1ce 1fbc
000001e0: c7db 173c becb c4bc 020a 83bc 02b8 b8bb
000001f0: 7f7e d6bc b8a4 303c 5e7a ed3c e75d 8e3c
00000200: 2dae f8bb c019 fd3c 3e7c 90bd 3f98 d0b9
00000210: 5d08 26b9 30e3 a83b a0ae 0e3d 32da d5bb
00000220: 0ddd 5a3c e86c fc3b f19c c43c 9a07 1abc
00000230: 4e04 0a3b fc88 0d3d dce3 51bc 3cc5 013d
00000240: 645e 28bc a325 073b 0f94 4bbc 9f07 c33c
00000250: 95b7 4dbc ec7b 453d ff4f 4cbc 168a 18bc
00000260: 1d45 1b3c f008 d33c bea9 28bd e51b 6d3b
00000270: a8cb 073c e43d 00bd 41c3 823c eb07 b73c
00000280: ef84 973c 85f2 02bd fc30 393c debc c4bb
00000290: cdd1 9e3b 2002 84bc 4908 d539 4746 2bbc
000002a0: ea1f 4ebb 0808 fa3b 7172 9b3c 4759 4c3b
000002b0: 3c53 db3b 0946 2fbb 332d 003a 41d0 b038
000002c0: 0076 ae3b b9f4 b93b 2a17 d43b 79ca 0abc
000002d0: 058c 63bb 9294 0dbc f87d 9abc 07f6 0a3d
000002e0: 54e3 3cbc 869e b83b c569 e2bc d4a6 d7bc
000002f0: bf33 4b3d 7279 c13b e238 eb3c b8f8 7e3c
00000300: c860 c63a 3df7 02bd 7aa6 613c 2bfc f13c
00000310: 5896 5439 99df 493b 8cd2 69bc 2f6d 6abc
00000320: 3646 c2bc bba2 e43a fd85 4bbb a98d 9e3c
00000330: 3b71 d9bc f228 91bc 613f c0bc 1f26 603b
00000340: f8a6 163c 6b42 a33b faf8 04bd 59e4 253a
00000350: 780c f1bc 5834 a3bb 3f1c 32bb 590f 5bbb
00000360: 2925 64ba a5bb a1ba 6425 a6bb ce44 c3bb
00000370: 99e4 0ebc 065b d1bb 8b8b b43b a038 1abc
00000380: 8dbd b33b f3f2 e0bc 8a4b 323b 2ca5 78bc
00000390: 162b c3ba 68a2 adbc f201 803c ec38 fdba
000003a0: 2b2f 0939 ff7d 6ebc fb05 583c 765f 2cbd
000003b0: 91cf 723c ea21 6fbc 1c20 6fb7 32a9 72bc
000003c0: 00fe fc3c ff0b 08bc a51d dcbb 5081 053b
000003d0: 8314 dfbb 83e8 3a3c b4bd cdbc 19f8 e33b
000003e0: 6a5c 82bc bf60 85bd 7a0a 283c 3121 38bd
000003f0: fce0 ea3c 58b7 81bc f7cf 193c 4ceb 34bb
-0.019690793 0.022615228 -0.007862919 0.00532962 0.006529116 0.020467376 0.018213449 -0.0004080536
0.0060315775 -0.011961654 0.01008494 -0.018011766 -0.01873668 -0.035859484 0.00033835814 0.031369112
0.028155917 -0.010318745 -0.019017572 0.022256408 -0.024367394 -0.014195959 0.01944293 -0.009566286
0.01111217 0.02657382 -0.0030569255 -0.015314782 0.020557782 0.000119142045 -0.028124318 0.032074157
-0.037518304 -0.019949717 -0.00504779 0.0058832904 -0.013804216 -0.064453706 -0.033208862 0.010524679
0.0065337443 0.003366664 0.042569395 -0.02094962 -0.06029374 -0.047818962 -0.027287507 -8.137048e-05
-0.0005316971 0.012191792 0.032730874 -0.048427857 0.051260494 -0.014353222 -0.017474916 -0.004052833
-0.020209054 0.034384675 -0.009892241 -0.065369844 -0.031369764 0.023115337 0.011103075 -0.012207519
-0.0123342555 0.0133417295 0.0023441412 0.03161735 -0.018023787 0.01592311 -0.03665134 0.00682238
-0.007235993 -0.01549098 -0.015653105 0.0027650413 -0.012064849 0.0037816311 -0.014290146 -0.0021634682
-0.03196357 -0.027243597 0.0029171023 0.0047714715 0.05689502 0.027987968 -0.009019106 0.0036701804
0.0067764395 0.0011893734 0.015227821 -0.0029096038 0.0005180544 -0.014752265 -0.008545695 0.0066928463
0.00086305983 -0.058775485 -0.014703704 0.0093022 0.0011275145 -0.005991676 0.0013322358 0.04462866
-0.010144632 0.01614337 0.00075274264 0.006597077 0.044450592 -0.030232487 -0.059569836 0.0040683523
0.008441628 -0.0114067625 0.02046209 -0.0073079937 0.017078508 -0.022741241 0.049480684 -0.009753854
0.009268708 -0.024022933 -0.015995983 -0.00563717 -0.026183365 0.0107814595 0.028989013 0.01737876
-0.0075891227 0.030896068 -0.07054947 -0.00039786284 -0.00015834109 0.005154036 0.034834504 -0.006526255
0.013358367 0.0077034123 0.024000617 -0.009401226 0.0021059695 0.034554467 -0.012810674 0.031682238
-0.010276411 0.0020621798 -0.012425437 0.023807345 -0.012555976 0.048213884 -0.012470244 -0.009310266
0.009476927 0.025761098 -0.041177504 0.0036179957 0.0082883015 -0.031309023 0.015962245 0.022342643
0.018496005 -0.031969566 0.011303183 -0.00600396 0.0048467875 -0.016114295 0.000406327 -0.010453767
-0.0031452128 0.007630352 0.018975468 0.0031181143 0.006693272 -0.0026744625 0.00048895477 8.431124e-05
0.0053241253 0.005674925 0.006472488 -0.008471125 -0.003472091 -0.008641379 -0.018858895 0.033926036
-0.011528809 0.005634132 -0.027638325 -0.026324667 0.049609896 0.00590437 0.028713647 0.015562229
0.0015135044 -0.031974066 0.013772601 0.029539188 0.00020273903 0.003080344 -0.01427139 -0.014308258
-0.02371512 0.0017443517 -0.0031055205 0.019354658 -0.02654325 -0.01771972 -0.023467721 0.003420241
0.009195082 0.004982283 -0.032464005 0.0006328277 -0.02942489 -0.004980605 -0.002717748 -0.0033425896
-0.0008703047 -0.0012339248 -0.0050703753 -0.00595913 -0.008721494 -0.0063890247 0.005509799 -0.0094129145
0.0054852427 -0.027459597 0.002720567 -0.015176099 -0.001489016 -0.021195605 0.015625928 -0.0019319332
0.0001308291 -0.014556407 0.01318502 -0.042083226 0.0148199955 -0.014595488 -1.4252986e-05 -0.014810847
0.030882835 -0.008303641 -0.006717401 0.0020371266 -0.006807865 0.011407974 -0.025114872 0.006957066
-0.015913207 -0.065125935 0.010256404 -0.04495353 0.028671734 -0.015834495 0.009387962 -0.0027606068

network_body.linear_encoder.seq_layers.0.bias f4 [256]
00000000: 8213 8dbc e1b1 6cbc 68d4 ec3c f228 343d
00000010: 68c8 603b 1fcf 5d3c a717 b7bb b165 1fbd
00000020: dced 35bd 84a0 a039 5300 4b3d ac66 553d
00000030: de84 2fbd d140 7d3d 8740 693c c4ac 813c
00000040: 1797 c1bc e388 4f3d 8090 c13c 48e1 703d
00000050: 47b0 fd3b e354 4cbd aff9 1bbd 3282 ba3c
00000060: 0a12 8f3c 63d0 7e3c 4332 223d 9aef 64bd
00000070: aade 3c3d 1306 a339 8765 21bb d655 ffbc
00000080: 36f3 0e3d 8b03 693b ff81 8dbc ac2d 753c
00000090: 05e8 8cbd c017 36bb e8f7 983c b302 193d
000000a0: a176 21bd fe58 fabc 4d5b 4abc ff64 a03c
000000b0: ca83 0fbc 00d4 b5bb 4f6a a1bb 0094 c93d
000000c0: b1d3 1c3c e702 f8bc b705 3a3d 36ec f73b
000000d0: 3f6d 6fbd 2275 463d dea2 b7bd 8327 333c
000000e0: 09e3 193c aab4 e8bc aa2f c53c dc3e 753c
000000f0: e412 3d3d 0c90 7c3c a2bc 02bd 8138 293c
00000100: 1556 8d3a 6652 b4bc 8907 a13c 353c 133d
00000110: e4c4 6c3a 75af e53c bcb2 90bb 649d b7bc
00000120: 9437 81bc f220 953c 473c cbbc ba0a 003b
00000130: 1f83 b3bd 3d9a fabc 91ef edbc 802d 98bc
00000140: 1556 3fbc bace cdba 270b 94bc 1b9f fcbb
00000150: ec80 cdbc 2f44 d13c 419a 49bd 8f71 0dbd
00000160: 63fc 56bd 1424 223b 7e3f cabb e0b6 563c
00000170: 5408 32bd 26a9 8ebd 1bfa 4b3c 02b1 58bd
00000180: cd22 623b fa67 82bd 8bf4 46bd 8f1a 22bc
00000190: 89a0 8ebd 3e2f 42bc fa4b d53b af66 06bd
000001a0: cbb8 443d 4edf 9ebd a504 743d 1f2b 8ebd
000001b0: 9f1b 9fbd ca4a 933d 7301 d0bc 35cc 96bd
000001c0: f108 b5bc 095f 8bbd 8ac3 4ebc ede1 9bbc
000001d0: 86c1 0cbd e8d3 2eba b552 cd3a 4f00 4dbd
000001e0: b185 d0bb 623f 5e3c 4894 053d 28da 89bc
000001f0: d61e ddbc a347 57bb 2e4b 9c3c 075a 10bd
00000200: 8c8c a9bc 66ae 01bd 29b0 7dbc 08e5 133b
00000210: 15ec 263b 42b5 6abc d0fc dcb9 242b 6abb
00000220: ab8f 2abd ae26 97bd 51b4 74bc 0e63 2d3c
00000230: a32b b33c f2ed c93b b37d 6abd 64d8 193d
00000240: bd47 06bd 5897 19bd 969c 8839 ad4a 86bc
00000250: f993 0ebd 6fcc f7bc bc54 693b b76c 2abd
00000260: ead0 c73c d82b 803d e3e5 a939 15e9 e93c
00000270: 26e8 7b3d e0e9 ba3d 1290 a1bc 2912 c5bb
00000280: b3d5 053d 5a18 1bbd 294d aabc c6f4 763d
00000290: 20ef 21bd 8abe 5bbc 036f fe3d d8f6 81bd
000002a0: 0f01 e03c ebec 62bc 25bf bb3c 5a79 69bd
000002b0: 8458 433a fe00 02be b938 af3c 481e 793d
000002c0: a6ed 5e3d a31e 2c3d 5674 093d dc3f ff3c
000002d0: 7c99 3abd f46e c13b ed6c 62bc be5c 39bc
000002e0: 5948 293d bf1f 44bd 687e 77bd 93dc ec3c
000002f0: 36dc e33c 2153 efbc 5259 ec3c b450 3ebd
00000300: 3ee3 4dbc 53a6 853c a787 213c 7ebf 4fbd
00000310: 4c33 01bc 3fe5 453d 86fc 4b3d 805d 013d
00000320: 50b3 a73b c22b 60bc 0a4a a7bc 21d1 8bbc
00000330: 730a 8d3c b928 41bd 10de 98bb 7377 edbc
00000340: 0d9c 39bc e6a0 22bd 9f39 a4bb 666b 94ba
00000350: 3057 d6bb f091 663c 84af 8d3d aa52 11bd
00000360: b460 11bd c4dc 06bd 8935 8cbd a654 06bd
00000370: d564 4fbc f8cf 95bb 89a8 ffbc a15a 86bc
00000380: 1052 53bd 8ae2 0d3d 8381 c03c c7a3 aa3c
00000390: 5548 de3c 6981 b7ba c79b 253d f31b c6bc
000003a0: 716d 6e3b 73c2 07bd eff8 413d f280 5f3d
000003b0: 1f2d 953d 25d3 3d3c c0dd 493b 408e 5e3b
000003c0: 4d23 09bd fa55 5cbc 8fbd 7ebd 7706 573b
000003d0: d4d1 2a3b 80d5 5dbd 0026 11bc 432a abbd
000003e0: f360 4fbd 3ad0 793c fc30 08bc 2049 473c
000003f0: 942c 9c3c 6cd8 503b a82c 04bd 67e7 8ebd
-0.017221216 -0.0144467065 0.028909877 0.04398436 0.003429914 0.013538151 -0.0055875364 -0.03891534
-0.044416294 0.00030637172 0.049560856 0.05209987 -0.04285132 0.061829392 0.014236576 0.015829451
-0.023631616 0.050667655 0.023628473 0.058808595 0.007741961 -0.04988564 -0.038079914 0.02276716
0.017464656 0.015552613 0.039598715 -0.055892564 0.046110786 0.00031094308 -0.0024627165 -0.03116886
0.034899913 0.003555509 -0.017273901 0.014964502 -0.06880192 -0.0027785152 0.018672898 0.03735609
-0.039419774 -0.030560013 -0.012350869 0.019579409 -0.008759448 -0.005548954 -0.004926003 0.09842682
0.009571956 -0.030274821 0.045415606 0.0075660003 -0.058453795 0.04845155 -0.08966611 0.010934713
0.009392508 -0.02840646 0.02407058 0.0149686 0.046160594 0.015415203 -0.031918176 0.010328413
0.0010783101 -0.022011947 0.019656913 0.03594609 0.00090320245 0.028037766 -0.004415838 -0.022413917
-0.015773572 0.018204186 -0.024809016 0.0019537644 -0.08765244 -0.030591125 -0.029044898 -0.018576384
-0.011678238 -0.0015701868 -0.018071724 -0.0077093965 -0.025085889 0.025545208 -0.049219374 -0.034532126
-0.05248679 0.0024740743 -0.0061721196 0.013105124 -0.043464974 -0.06965856 0.0124497665 -0.052903183
0.0034505606 -0.06367488 -0.048573058 -0.009894027 -0.069642134 -0.011852084 0.0065093013 -0.03281277
0.048027795 -0.07757436 0.059574742 -0.069418184 -0.0776894 0.07191999 -0.025391316 -0.07363168
-0.02209899 -0.06805236 -0.012619862 -0.019028628 -0.034364246 -0.000666915 0.0015664907 -0.050049122
-0.0063635935 0.013564916 0.032612115 -0.016827658 -0.026992243 -0.0032849095 0.019078817 -0.035242107
-0.0206969 -0.03166046 -0.015483894 0.0022566933 0.0025470306 -0.014325442 -0.0004215003 -0.003573128
-0.04164092 -0.073804244 -0.014935569 0.0105826985 0.021871394 0.0061623985 -0.057248782 0.03755988
-0.03278326 -0.03749785 0.00026056607 -0.01639303 -0.034809086 -0.030248849 0.0035603484 -0.041607585
0.02439161 0.062583625 0.0003240547 0.028553525 0.06150069 0.09126639 -0.019722018 -0.0060141277
0.032674503 -0.03786502 -0.020788746 0.060292028 -0.039534688 -0.013412127 0.124235176 -0.0634591
0.027344255 -0.013850431 0.022918293 -0.057000495 0.00074518495 -0.12695691 0.021389352 0.060819894
0.054425858 0.042021405 0.033558212 0.03115838 -0.04555653 0.005903119 -0.013819915 -0.011313615
0.04132876 -0.047881838 -0.060423285 0.028913772 0.027814966 -0.029214444 0.028851185 -0.046463683
-0.012566386 0.016314661 0.009859002 -0.05071973 -0.007885765 0.04831433 0.049801372 0.03158331
0.0051178113 -0.013682308 -0.020421047 -0.017067494 0.017216897 -0.047157977 -0.004665144 -0.028987622
-0.011328709 -0.039704226 -0.005011752 -0.0011323511 -0.0065411553 0.01407288 0.069182426 -0.035479225
-0.035492614 -0.032925382 -0.068461485 -0.03279557 -0.012658318 -0.004571911 -0.031208294 -0.016400637
-0.051591933 0.034639873 0.023499256 0.020830048 0.0271341 -0.0014000359 0.040431764 -0.02418325
0.003638115 -0.033144426 0.047356542 0.05456633 0.07283997 0.011585985 0.003080234 0.00339593
-0.03348093 -0.013448233 -0.062192496 0.003281025 0.0026065009 -0.054158688 -0.008859158 -0.0835767
-0.050629567 0.015247399 -0.00831246 0.01216343 0.019064225 0.0031867279 -0.03226915 -0.0697773

network_body.linear_encoder.seq_layers.0.weight f4 [256, 9]
00000000: 84bc 713e cce6 d6be 8475 b1be 7b8b 62bd
00000010: d7a2 2bbc 4070 aabe cfc2 7a3e 3ca3 38be
00000020: 10a2 033e faff 9d3c b75b 4a3e c2c0 12bf
00000030: 017f d0bd 8e50 113d a9bc e2bd aadf a23d
00000040: 432d 4d3f d7aa 853e df1d 103f 9453 2a3e
00000050: 2912 febe fbf0 2c3d 2f84 0c3c 349b 873e
00000060: 8af1 0fbf 1572 003e b261 5a3d 9036 3d3e
00000070: 948f e23c 92a8 bdbe 324e f7bd 1fa6 efbd
00000080: cd95 4bbe cf58 353f 7fc1 7bbe 759d ab3e
00000090: 9f3f fabd 313b 293e c3e4 1c3f ffa1 113d
000000a0: 3c9c d5be 0031 7ebe 8f49 a9bd 07b9 5fbe
000000b0: dc0b 98bd 51e1 1abd bb02 8e3d 2490 00bf
000000c0: c068 1abf 5f37 593d 9ff6 da3d 702c d9be
000000d0: 8e4a 8abe d1c0 9bbc 445f 2dbd ec92 8cbe
000000e0: 9dd5 21be 1a13 c63c a084 ebbe 436d 2bbd
000000f0: 4eda 6dbe 2072 633d 63e7 1abe 811b a13e
00000100: fd11 8bbd c6ae cabc e87f 753c ceeb 6fbe
00000110: a24e 6abd 3833 b93d bfc4 bfbe 9eb6 d2bb
00000120: 141d 96bc 3d47 68be 00b9 1f3f 4f7d 1dbe
00000130: 1883 033f 0c14 853e 8afc 20bf 7e74 cfbe
00000140: 77dd 32be a8f2 9ebe 9cbb f53d 4b04 bcbe
00000150: e499 b1be 85f9 223f e62c cabd 77b6 d9be
00000160: efaf 9d3e a7d4 b23e dda2 f43e b6c4 cc3d
00000170: 7cc7 00bf 3077 a1be c29e 58be 7ef6 873e
00000180: d863 03bf 7ce1 f6be 1545 623e 7b58 2dbe
00000190: 0978 3bbd d95e 96be 6488 ec3c c8fd 433c
000001a0: d1a4 023e b8b2 2fbe 76fa c53c 1427 f33d
000001b0: c740 47bd 348b 3e3e ac01 6abd 50a9 203f
000001c0: 9d92 a6bd da17 9bbe 3438 c13d 1f98 d6be
000001d0: db39 ad3e 4cab 20bf 7c14 173f 068a a6be
000001e0: 59f3 b13e f675 ebbe 68ff cc3d 149f d5be
000001f0: 5ea5 0e3f 0242 d93c cbb1 86be 0f6e 0ebf
00000200: 6274 99bb 06bd a73c d7e5 89be 3f20 a43e
00000210: 7857 923e cd2e 01bf 2228 d9be 42c8 ccbe
00000220: 5996 243f 1f97 6a3e 36a6 293e f29e 963d
00000230: 8454 de3d 6a13 4c3e 3aba 5abe 72bf 1d3e
00000240: d009 e83e 4409 213d 0a3b b8be 7b1b 56bc
00000250: a8f1 2dbe 30c0 c1be 8c10 0cbf 482f d13d
00000260: a016 31be 7abf a1bd 9193 943e f9e1 02bf
00000270: 4176 7fbe 33ac 2abe c7bc 16be 74c9 a9bd
00000280: a843 76bd 5243 813e 40aa ca3e e4ce 063c
00000290: 4161 623f 66df a53e dd85 37bd 5087 803e
000002a0: 367a 513e 52bf 863e 1512 103f 5829 3ebf
000002b0: 73c1 9dbe 698d 053e 6768 753e aace 1ebe
000002c0: daaf c33e 9a76 5fbe 6e83 273f 04e3 553e
000002d0: 0ad0 c23e b83b a23d cf30 b9be fbf3 ccbe
000002e0: 1191 05be ba9b 9cbe a42e 85bf af6d 6fba
000002f0: 027f d6bd 5174 d53d e6f0 eabc 36f8 28bd
00000300: 443c 5dbd dd3b 7ebe 7f5a 3dbf f417 363e
00000310: 06a1 393e 5e35 02be 6a3b 983e e359 bdbe
00000320: 88d3 f03d 4559 6bbe 3657 0abf bc41 e9bc
00000330: a0dc dc3e 54e4 9fbb fddc e3be eea6 093f
00000340: 2a9e b03d 7812 6bbe 9627 883c 60fb 983d
00000350: 4186 f3bd 17e9 f5be 8492 2dbd 558e 6e3e
00000360: 0add c0bd 768c 3c3d 10ad 8ebe cd7e d03e
00000370: b132 163b d390 95be 1d72 163e 0c45 9e3e
00000380: 33a9 883e 28fc 1f3e 09a6 033e d0ce 533e
00000390: abb9 7f3e 3368 a13e 6c6c c7bd f2c0 0b3f
000003a0: 97ce 55be 33a6 2bbd 871e a2be 05fc 2c3e
000003b0: 4e9b 693e 853a 7dbf 0fdd 81bc 334a f13e
000003c0: 8cec a13e 33cf eebe 8c5e 933c bfe1 96bd
000003d0: 8295 ddbd c53d 0d3f c1ec 59be 3564 34be
000003e0: f325 903e 735d 8d3a a77c 8a3d 3528 173d
000003f0: d24d d93e 66a7 5ebe a01d 92be ef6c 71be
0.23607069 -0.4197296 -0.3465997 -0.0553088 -0.010475836 -0.33288765 0.24488376 -0.18031019
0.1285479 0.019287098 0.19761549 -0.57325375 -0.10180474 0.035477214 -0.1107114 0.07952817
0.8014719 0.26106903 0.5629558 0.16633445 -0.4962323 0.042222004 0.008576437 0.26485598
-0.56227934 0.12543519 0.053315826 0.18477845 0.027656354 -0.3704267 -0.120754614 -0.11701607
-0.19881363 0.70838636 -0.24585532 0.33518568 -0.12219166 0.16526486 0.6128656 0.035554882
-0.4172076 -0.2482338 -0.08265983 -0.21847926 -0.07424137 -0.037812535 0.069341145 -0.5021994
-0.60316086 0.05303132 0.106915705 -0.42416716 -0.27010006 -0.01901284 -0.04232718 -0.27455842
-0.15804143 0.02417903 -0.45999622 -0.041852247 -0.23227808 0.05552876 -0.1512733 0.31466296
-0.0679054 -0.024741542 0.0149841085 -0.23429796 -0.057203896 0.09042972 -0.37454793 -0.006430461
-0.018324412 -0.22683425 0.6239166 -0.15379833 0.5137191 0.25991857 -0.62885344 -0.40518564
-0.17467295 -0.31044507 0.11998674 -0.36722025 -0.34687722 0.63661987 -0.09871845 -0.42522022
0.3079829 0.34927866 0.47780505 0.09998457 -0.5030439 -0.31536245 -0.21154311 0.26555246
-0.51324224 -0.48218906 0.22096665 -0.16928284 -0.04576877 -0.29369238 0.02887363 0.011962362
0.12758185 -0.1715802 0.02416728 0.11872688 -0.04864576 0.1860779 -0.0571305 0.6275835
-0.08133433 -0.30291635 0.09434548 -0.41912934 0.33833203 -0.6276138 0.5901563 -0.3252718
0.34755972 -0.45988435 0.100096524 -0.4172293 0.5572108 0.026520733 -0.2630752 -0.55636686
-0.0046830634 0.020475876 -0.26933166 0.32055852 0.28582358 -0.5046204 -0.4241343 -0.39996535
0.6429191 0.2290921 0.1656731 0.07354535 0.10855964 0.19929281 -0.21360102 0.15405062
0.45319986 0.039315477 -0.35982543 -0.013068075 -0.16986716 -0.3784194 -0.5471275 0.10214096
-0.17293787 -0.078978494 0.29018834 -0.51126057 -0.24947454 -0.16667251 -0.1472045 -0.08290377
-0.060123116 0.25246674 0.39583015 0.0082280375 0.8842965 0.32397002 -0.044805396 0.25103235
0.20456776 0.2631784 0.5627759 -0.74281836 -0.30811653 0.13042225 0.23965608 -0.15508524
0.38220102 -0.21822587 0.6543492 0.20887381 0.38049346 0.07921547 -0.3617005 -0.40029892
-0.1304362 -0.3058756 -1.0404859 -0.00091334706 -0.104734436 0.10422576 -0.028679322 -0.041252337
-0.054012552 -0.24827524 -0.7396621 0.17782575 0.18127832 -0.1271567 0.2973283 -0.3698264
0.117590964 -0.22983272 -0.54039323 -0.028473727 0.43137074 -0.0048795138 -0.44504538 0.5377034
0.086239174 -0.22956264 0.016620439 0.07469821 -0.11890841 -0.48029396 -0.042376056 0.23296483
-0.0941716 0.04603239 -0.2786641 0.4072174 0.0022918398 -0.29212055 0.14691968 0.30912054
0.2669159 0.15623534 0.12856306 0.20684361 0.2497317 0.3152481 -0.09737477 0.54591286
-0.20879589 -0.041906547 -0.31663916 0.16893013 0.2281315 -0.9891742 -0.01585248 0.47126922
0.31625783 -0.46642455 0.01798942 -0.073672764 -0.10819532 0.5517238 -0.2128172 -0.17616351
0.28153953 0.0010785296 0.06762057 0.03690358 0.42442185 -0.21743545 -0.28538227 -0.23576711

network_body.linear_encoder.seq_layers.2.bias f4 [256]
00000000: e5c3 a6bc e9b2 0ebc 026a 09bc cdd2 8dbc
00000010: 6f0c b8bc b01e 91bc 0082 76bb 7198 bcbc
00000020: eb4c 97bc 453f b1bc b9e0 a7bc 9428 bfbc
00000030: 90f3 133c 1b0b f6bc 473d 08bd f22f 8d3a
00000040: 89d4 a9bc 2466 33bc 14c8 98bc 57c9 75bc
00000050: 4fce ff3b 7914 08bd bcee 0bbd c062 7fbc
00000060: 435b debc 7b95 5fbc 6e39 a3bc 98c1 bfbc
00000070: 5551 81bc 2e92 fdbc 4871 0f3c 7d99 a9bc
00000080: bea8 2abb 814a 1a3c 1669 dbbc f72c 84bc
00000090: 09a1 debb 2ffe bbbc ff29 c0bc 5f59 b7bc
000000a0: f76a aebc 65e4 c7bc 9d59 80bc c342 57bc
000000b0: b4ba 6ebb 03a1 193a cd4c 923c f796 1ebc
000000c0: 5e9f 073b 72c5 0bbc 7dec d3bc 3d02 d2bb
000000d0: ac51 a1bc aba9 afbc fac8 a0bc 055e bebc
000000e0: 54a8 af3b 5db4 8fbc 1575 06bd 4de7 11bb
000000f0: 6dab 58bc c940 42bb 56cc 3ebc 0671 c1bc
00000100: e456 06bd bbc9 f739 76ba c6bc 5eeb dfbc
00000110: 8677 d9bb eaee dcbc 2bd4 d6bc e83e 8ebc
00000120: 6d78 afbc b7c2 b9bc 37dc a2bc 7504 b9bc
00000130: 9f3f 0bbd 38ac 62bc 52a6 dfbc 3ac4 85bc
00000140: 216d 69bc ef30 a0bc 4bf9 31bc 7af4 06bd
00000150: 47cd e2bb 1916 cdbc 885e e8bc 8a37 6bbc
00000160: c3ff 76bc 9f21 fbbb 6b77 f5bb bf09 91bb
00000170: e337 6bbc 1a6e c2bc 0c00 3dbc 150a 5ebc
00000180: 16a5 70bc 5dfb 06bd 4800 55bc 9f1a 82bc
00000190: 9492 4dbc c3f5 60bc 3a10 10bc 5489 e2ba
000001a0: 1ff2 16bd 3400 01bd c034 96bc c767 95bc
000001b0: dda5 27bc ce43 d2bb 8ca9 11bc 1716 8fbc
000001c0: a56e 02bc 4645 77bc f091 ddbc d1ed c3bc
000001d0: 589a c7bc 390d 8bbc 44cf 3dbc 1296 fdbb
000001e0: 9665 ddbc 9761 03bc 95ca edbc 5f6c 85bc
000001f0: a35b 92bb a107 05bd 6efd 22bc 386b c2bc
00000200: 2016 b0bc 5ce9 aebb b634 e8bc 2b78 9cbc
00000210: 6875 62b8 c085 4ebc ffde bbbc 5ae4 95bc
00000220: f152 a4bc 48a7 b9bc 5d7c 53bc cccd aebc
00000230: 3469 99bc c30c 5bbc 3c87 00bc 1ecc 1abd
00000240: a7e5 503b 4014 0ebd 8dd6 a83b 0bc7 5ebc
00000250: ac22 8dbc 4f53 ee39 3917 85bc 8c13 eebb
00000260: fd51 85bc c5b8 e3bc e0f7 4fbc 26fe b3bc
00000270: 16df f7bc 55a5 d0bc 5e84 87bc 4eee 04bd
00000280: e72e 18bd 275e 85bc a90a 01bd 01b4 933a
00000290: 6e66 cbbc 85f0 0cbd 6840 b9bc 061b 53bc
000002a0: 0486 52bc 103c 89bc 2d36 19bc 87cd 93bc
000002b0: 4740 dabc ad15 6fbc 22c6 e9bc a266 2bbc
000002c0: 4119 c5bc d7bd b5bc c092 e4bc f940 cfbb
000002d0: e95f 06bd 55b3 22bc c206 e6bc 4dea bbbc
000002e0: b36f 91bc 281f a6bc 88ef 66bc 9166 cebc
000002f0: e444 c4bc 3010 ddbc 1c9c d6bb cd67 cabc
00000300: 7a30 b6bc 11b7 27bd 2342 38bc f793 25bc
00000310: b0a2 9fbc 025a 94bc 6758 42bc cf3f a0bc
00000320: ea4b 4fbc 30ec 8cbc 2b16 01bc 33b0 08bd
00000330: 540a 97bc d1b3 40bc b4cf f1bb 1f90 a4bc
00000340: aa23 80bc 1ec0 42bc 9714 e1bc 9b75 90bc
00000350: a108 ccbc 725d b6b8 05de 06bc 572f 9fbc
00000360: 353f e6bc d55c b6bc f00c 13bd 36c4 5abc
00000370: d6b7 f4bc 3d87 fcbc ad15 aabc 20f1 ecbc
00000380: cbe6 6dbc 54bc 50bc 1ee8 cabb 0528 86bc
00000390: ed03 4abc 092d f1bb 848e 89bc 6fd3 54bc
000003a0: 37f3 08bc cde7 e2bc 1cc1 91bc 4539 27bb
000003b0: 07a5 0abd 36ab c0bc 038f f1bc bf74 d2bc
000003c0: 8254 bfbc 1366 acbb d204 e8bc 71a1 b0bc
000003d0: 7093 adbc 9da5 a0bc 2f85 14bc 5bb8 dbbc
000003e0: 4ec3 dabc 9393 98ba e9c1 51bc b224 b6bc
000003f0: 36bb d539 9c2b 91bc a5d9 9dbc edf0 b5bc
-0.020357082 -0.008709648 -0.008387091 -0.017312432 -0.022466866 -0.017714828 -0.0037614107 -0.023021908
-0.018469295 -0.021636615 -0.020492898 -0.023334779 0.009030238 -0.030034592 -0.033261564 0.0010771735
-0.020731227 -0.010949645 -0.018650092 -0.015001616 0.0078065763 -0.03322265 -0.03416322 -0.015587509
-0.027143126 -0.013646479 -0.019924846 -0.023407742 -0.015785852 -0.030953493 0.008755036 -0.020703072
-0.002604052 0.009417177 -0.026783507 -0.016134722 -0.006794099 -0.022948353 -0.023457525 -0.022381483
-0.02129124 -0.0244009 -0.015667731 -0.013138476 -0.0036427202 0.00058604794 0.017858887 -0.0096795475
0.0020694355 -0.008530961 -0.025869602 -0.006408958 -0.019692264 -0.021443209 -0.019627083 -0.023238191
0.0053606424 -0.017542059 -0.032826502 -0.002226311 -0.013224465 -0.0029640666 -0.011645397 -0.023613464
-0.03279771 0.00047261812 -0.024258833 -0.027333912 -0.0066365628 -0.026969392 -0.026224216 -0.01736398
-0.021419728 -0.022675855 -0.019880397 -0.022585133 -0.03399622 -0.013835005 -0.027300987 -0.01632892
-0.01424721 -0.019554583 -0.010862659 -0.032947995 -0.0069214436 -0.025034951 -0.028365389 -0.014356503
-0.015075627 -0.00766392 -0.0074910424 -0.0044262107 -0.014356586 -0.023734141 -0.011535656 -0.013552208
-0.014687797 -0.032954562 -0.013000555 -0.015881835 -0.012547154 -0.013730469 -0.008792931 -0.0017283359
-0.036852 -0.031494334 -0.0183357 -0.018237961 -0.010232416 -0.0064167744 -0.008890521 -0.017466588
-0.00796095 -0.0150922 -0.027047127 -0.02391711 -0.024365589 -0.016974078 -0.0115850605 -0.007738837
-0.027025979 -0.008018873 -0.029027263 -0.016287027 -0.0044664904 -0.03247798 -0.009948118 -0.023732767
-0.021494925 -0.005337877 -0.028345447 -0.01910027 -5.3991942e-05 -0.012605131 -0.022933481 -0.018297363
-0.02005908 -0.022662774 -0.0129080685 -0.021338366 -0.018726923 -0.013369742 -0.007844742 -0.037792318
0.0031875165 -0.03468728 0.0051525296 -0.01359726 -0.017228447 0.00045456967 -0.016246425 -0.0072655138
-0.016274447 -0.027798066 -0.012693375 -0.021971773 -0.030257743 -0.025469461 -0.01654261 -0.032453828
-0.037154105 -0.016280247 -0.031504307 0.0011268855 -0.024829116 -0.034409065 -0.02261372 -0.012884861
-0.012849335 -0.016752273 -0.009351295 -0.018042339 -0.026641978 -0.01459257 -0.02853686 -0.010461481
-0.024059894 -0.02218525 -0.027902007 -0.006324884 -0.03280631 -0.009930451 -0.028079394 -0.022938872
-0.017753458 -0.020278528 -0.014095195 -0.025195392 -0.02395863 -0.026985258 -0.0065493714 -0.0247077
-0.022239912 -0.04094607 -0.011246237 -0.010106078 -0.019486755 -0.018109325 -0.011861897 -0.019561676
-0.012652377 -0.017202467 -0.00787882 -0.03337116 -0.018437542 -0.011761622 -0.0073794965 -0.020088254
-0.015642006 -0.011886625 -0.027475638 -0.017634204 -0.024906458 -8.695842e-05 -0.0082316445 -0.019431753
-0.028106311 -0.022261063 -0.03590101 -0.013352444 -0.029872816 -0.030826205 -0.020762289 -0.028923571
-0.014520357 -0.012740213 -0.0061922213 -0.016376505 -0.012330038 -0.007360105 -0.01679159 -0.012989863
-0.008358768 -0.027698422 -0.017792277 -0.0025516313 -0.03384879 -0.02351914 -0.029487139 -0.025690435
-0.023355726 -0.0052611916 -0.028322611 -0.021561356 -0.021188468 -0.01961022 -0.009064957 -0.026821306
-0.026704457 -0.001164066 -0.012802579 -0.022234295 0.0004076601 -0.01772099 -0.01926882 -0.022209609

network_body.linear_encoder.seq_layers.2.weight f4 [256, 256]
00000000: 1d34 523c acdf ad3a 7d30 8bbd 89f5 37bd
00000010: 7ea2 633d 4e24 b93c 1e2a 0a3d 366b dabd
00000020: 14f8 82bd dbf2 4fbd 2e45 92bc 7a34 113c
00000030: 65e3 063d 4a13 083d 5820 873d bb78 1ebe
00000040: b6b7 293d e4ec 59bd afcb 36bc 740a 76bd
00000050: 19a3 98bd 5282 56bd 1279 0ebd df60 73bc
00000060: d081 c6bd a3fe b2bd b900 dd3c facf 853d
00000070: 5c4d 1ebd 7e16 79bd 4242 b8bc 4b21 5dbb
00000080: cd79 3ebd 9b57 d83b 581a f7bd 5c29 aa3d
00000090: 113b 90bd 6872 893d 5153 4ebd a03d 233c
000000a0: 188d 183d 4233 23be b872 eb3a ac68 c9bd
000000b0: 0eec 143d e56c 8c3d 2b90 e8bc 72c8 1abe
000000c0: a47e 943c 12a8 a1bd 8038 b33d 4580 9fbd
000000d0: 170b 143d 5c51 04be 5207 813c a4ee 933d
000000e0: 3336 e8bc cd59 60bd f02c f2bb e7ff c93d
000000f0: 4649 993d 2840 2dbd 0ebc 153d 4582 28bd
00000100: 7141 3dbb cf51 58bc 74f6 913c 2a56 a8bd
00000110: 099e 60bd 5e91 59bd d6bf 06bd 3dc7 f9bd
00000120: 60f1 5dbd 7593 413d 9e52 acbc 71cf 883d
00000130: 519d 90bc 6a52 85bc 536f 0abe 7daa adbc
00000140: f8fb a53d e19b 01bb 3e09 85bd 5d2b 483d
00000150: a482 1f3d 59c5 983d c307 b0bb 6118 823d
00000160: a585 84bd 956c babd a20e 123d 80ca 863d
00000170: 8398 53bd 83d5 19bd 47aa 34bc 7e6e 3dbd
00000180: 7b2f 953b d1f8 053c ec7a 623d 6e59 7cbd
00000190: 3836 033b bc6a d73d 5874 82bd 9a83 253e
000001a0: 6174 22bd 7409 bd3c 4f2e 96bd f1d9 39be
000001b0: 3a38 5a3d a330 d33c 2f77 8cb6 e9ab 333d
000001c0: 117a 6d3c cb70 f13b 2447 13bd b861 b83d
000001d0: b6be de3a d422 34bd 897e a23c 874c 45bd
000001e0: dcad e0bc de1a 13bb 0c82 783d 0b00 1c3d
000001f0: 147a 8abc 92fb e03c cd86 503d 1142 6bbd
00000200: ed5e 423d d8f7 953d 061c 053d c1da c43d
00000210: e741 5ebd 5b81 62bd 4fde f4bb 3d9e 71bb
00000220: 4bd2 24bd 4b4a 403d e087 583d fed6 41bd
00000230: cb74 d0bb 49d2 923c f0e0 9a3c 18cb 85bc
00000240: d52a 19be 3452 c4bc 35aa 213d 678b 843d
00000250: a9ea 213d b261 cfbc b3ca 6a3d 99a1 14be
00000260: 9816 cabc 70b8 03bd b22c 75bd 8547 2bbd
00000270: dffc 343d 3e02 5cbd 36d0 87bd 8d40 10bd
00000280: c0ec a8bd 7c88 53bd d0cf 56bd 3ae4 91bd
00000290: 743c b3bc a7aa 95bd af9a e7bd 02cb 85bd
000002a0: b15e c93c b809 96bc 714d 23bd c7b8 f03d
000002b0: 81b0 4f3d a72f 71bb 8756 0ebd 095b a4bd
000002c0: 0ba6 423a 8e64 523a 31c3 47bd e873 d2bc
000002d0: 1431 84bd d529 41bd 22d7 69bd 12af 5dbd
000002e0: 9661 f3b9 69d4 653d 8eb5 243e 64f3 2abb
000002f0: 8399 973d b260 2abd 0b77 b5bd 9d2d 0f3e
00000300: ea70 cabd 26fc 3fbb 81bb c3ba 64d5 743d
00000310: 823c 9bbc fbb0 413c 895f b9bd 9028 9dbd
00000320: 8045 713c 3739 013e 0978 953d 30c0 c5bd
00000330: b0c8 49bd e974 adbc 762f 823d bd03 4ebc
00000340: 210f e0bd e8cb d3bc dbc8 653d 6221 653d
00000350: a361 083d 26c6 6fbc 2edf bebd 5850 07bd
00000360: 0214 08be 541c 8ebd 1b22 b1bb f0d9 e13c
00000370: 7434 66b8 0dac 143d 425f b7bc ecf3 473d
00000380: 51dd 4cbd b7cc 24bd 1589 e7bd 1a9f c53d
00000390: 0237 95bc 513e ccbd f045 07be c80a 693d
000003a0: db89 ee3c 1b49 6c3d 0b37 b8bc fdcf 1bbe
000003b0: 8db4 46bd bbc0 fdbd cbc5 09be d07f eabd
000003c0: 334f 253c ad42 713c 121b 1abc 5639 143c
000003d0: 8de0 99bd 4d41 a3bc 3c5f 3b3d e7e3 bcbd
000003e0: 1b07 023c dc14 5c37 58a4 803b e523 a33d
000003f0: 4ab5 f2bb 3988 203d ffc3 133d 27d4 b53c
0.012829808 0.0013265512 -0.06796358 -0.044911895 0.055574887 0.02260032 0.033731572 -0.1066498
-0.063949734 -0.050768714 -0.017855253 0.008862609 0.032931704 0.03322152 0.06597966 -0.15475743
0.041434966 -0.053204432 -0.01115696 -0.060068563 -0.074529834 -0.052370377 -0.03478343 -0.014854639
-0.096927285 -0.08739974 0.026977884 0.06533809 -0.038647994 -0.060812466 -0.022492532 -0.0033741768
-0.046502877 0.0066022403 -0.120655715 0.0830867 -0.07042516 0.067112744 -0.050372425 0.009963423
0.037243932 -0.15937522 0.0017963266 -0.09834418 0.03635793 0.068567075 -0.028389057 -0.15115526
0.018126793 -0.07893385 0.08751011 -0.07788137 0.03614339 -0.12921661 0.01575056 0.072232515
-0.028346157 -0.05477314 -0.007390611 0.098632626 0.07484679 -0.042297512 0.036556296 -0.04113986
-0.0028878117 -0.013203098 0.017817713 -0.082195595 -0.054838214 -0.05311715 -0.032897793 -0.12196205
-0.05418527 0.047259767 -0.021035489 0.06680191 -0.01765314 -0.01627465 -0.1351903 -0.02119946
0.081047 -0.001977675 -0.064959034 0.04886948 0.038942948 0.07459516 -0.005372019 0.06352306
-0.06470803 -0.09102742 0.035658486 0.065815926 -0.05165912 -0.037557136 -0.011026925 -0.04624795
0.0045527793 0.008176998 0.05529301 -0.061608724 0.002002133 0.10518405 -0.06369847 0.16163483
-0.03966177 0.023075797 -0.073330514 -0.18149544 0.053276278 0.025780028 -4.1862e-06 0.04386512
0.014494435 0.0073681823 -0.035956517 0.09003013 0.0016994092 -0.043978527 0.019835727 -0.048168685
-0.027426653 -0.0022446434 0.060670897 0.03808598 -0.016903915 0.027463708 0.050909806 -0.057436053
0.04745381 0.07322663 0.03249743 0.096120365 -0.054262068 -0.055299144 -0.0074727903 -0.0036868
-0.040239614 0.04694585 0.052863955 -0.047324173 -0.006361579 0.017922537 0.018906087 -0.016332194
-0.14957745 -0.023964979 0.039468963 0.064719014 0.03953043 -0.02531514 0.057322215 -0.1451477
-0.024668977 -0.032158315 -0.059857078 -0.041816253 0.04418647 -0.053713076 -0.0663151 -0.03521781
-0.082482815 -0.051643834 -0.05244428 -0.07123609 -0.021879412 -0.0730794 -0.113088004 -0.06532861
0.024581285 -0.018315181 -0.039868776 0.117539935 0.050705437 -0.0036802085 -0.034750488 -0.08025176
0.0007425255 0.0008025848 -0.048770133 -0.025690034 -0.064546734 -0.047159035 -0.057089932 -0.05412204
-0.0004642128 0.056110773 0.16084883 -0.0026085014 0.07402327 -0.041596122 -0.08860596 0.13982244
-0.09884818 -0.002929458 -0.00149332 0.059773818 -0.01894975 0.011821981 -0.09051425 -0.07673752
0.014726043 0.12619482 0.072982855 -0.096557975 -0.049263656 -0.021173911 0.06356709 -0.012574133
-0.109403856 -0.025854066 0.056099754 0.05594004 0.03329624 -0.014634645 -0.09319912 -0.033035606
-0.13288882 -0.06938997 -0.005405677 0.027569741 -5.4885124e-05 0.036296893 -0.02238429 0.048816606
-0.05001575 -0.040234294 -0.11305443 0.09649487 -0.018214706 -0.099728234 -0.13210273 0.056895047
0.029118469 0.057686906 -0.022487184 -0.1521606 -0.04851203 -0.12390276 -0.13454358 -0.114501595
0.010089683 0.014725369 -0.009405868 0.009046873 -0.07513533 -0.019928599 0.04574512 -0.092231564
0.007936264 1.3117879e-05 0.0039258413 0.07965831 -0.0074068652 0.039192412 0.03607559 0.022195889
