KukJinKim/RobotBehavior.onnx (onnx, 285759 bytes, 8 tensors)

action_model._discrete_distribution.branches.0.bias f4 [7]
00000000: 0e22 d93b a8f3 513c 2181 f23c adf9 1c3c
00000010: bd23 f83b 58fa febb fb97 b93c
0.006626374 0.01281444 0.02960259 0.009581012 0.0075726197 -0.007781308 0.022655478

action_model._discrete_distribution.branches.0.weight f4 [7, 256]
00000000: df6c 9d3d 5c16 d0bb 3203 99bd 6e17 083c
00000010: a61f 773c 2944 d4bb 146f d2bc 741f f33c
00000020: b34e 4fba c955 343c 28df b53c b168 863c
00000030: 24d0 2a3d 9cbc dd3c 94cc a33c a5d0 c43a
00000040: d971 fbb9 5509 1d3d a799 4dbc 33df 2d38
00000050: 73ef d33d 4966 253d 2204 a0bc e690 9e3d
00000060: 6dd6 933c 43aa 2fb9 360d 00bb 26be 983c
00000070: fd4e 85bc 48bb 023d 846b b23c 93bf 6cbd
00000080: 242c 4bbc c2db f23c d8fe 20bc 8f09 15bc
00000090: 6035 173d 5f89 293c c532 823c 9617 c23c
000000a0: 58df a33c a6c4 93bc 0eea 9d3c 4213 19bc
000000b0: 9ec6 283d 18bb 073c 2545 cdbd 9e15 24bc
000000c0: 87b3 703b e94e 82b9 59c0 16bd 3dda e83c
000000d0: db3e c63c dcd2 a6bc 03f5 8ebd a3e9 47bc
000000e0: c174 de3c b7d5 b9bc 70f4 493c b40e 413c
000000f0: 62c1 643a cdc3 b7bc a084 db3c db29 5b3c
00000100: f957 ef3c 3f0e 003d 4c3e 783b 3fa1 013d
00000110: c263 c33c d1a4 19bc 3105 9b3c 033c bcbb
00000120: dbf7 253c 6577 9b3d 17c1 803c 1e7e 4d3b
00000130: 5ab9 0d3d b232 3fbc 3afe 6ebb 4474 8a3c
00000140: e031 4dbc 29ab fd3c d8a0 0c3b e419 7939
00000150: 6d96 7c3d 50e6 c43c d3c3 09bc 90c5 14bc
00000160: dc12 0f3c cf75 363d c03b 02bc 16af 22bc
00000170: 2948 a1bd 0322 1cbc 571e 473c cefb 183d
00000180: 396f 083c 99db 0ebd e00f b83b 787d a3bc
00000190: a1df a03c 0e33 d03b 382e 843b 3524 c3bc
000001a0: 14be e2bc 4b42 2dbc a608 43bc 351c a1bc
000001b0: 4f3e 96bd 51a7 e43c 5169 463c d626 71bc
000001c0: 4a13 01bd c9cc df3a 67fe 4d3c 3960 ae3c
000001d0: 0af9 923d 6ad6 febb b518 6d3b 1fd1 1f3d
000001e0: f44d 633d 6343 8f3b cd32 8e3c e5e8 a8bc
000001f0: fcf2 6e3c b584 ee3c f261 0dbd 26ee 313c
00000200: a0e0 a33a 507e 413c 255b 3a3d 429a e9bc
00000210: 89d4 de3a d615 163b 0443 a63c 8822 0f3d
00000220: 649b a23b ca56 9dbc 066e 5dbd 360e f83c
00000230: a73a 6d3d 99f7 4f3c 88a5 203d 48a2 dcbb
00000240: 14c9 8abc 1b8e 53bd 0c04 733c 136d 24bd
00000250: 5da8 c03c 6174 633d 65ef 47bd cacb 6bbd
00000260: 89a8 b63c f0c2 053d e7bc 73bd 6e8e c83c
00000270: c868 f63c bab3 4bbd b814 a5bc 74c0 3b3b
00000280: 1fe2 0b3c ef4e a43c 4f96 c93c 64ec d73c
00000290: 7558 c03d cb3e 45bb 8c37 4c3b b5c3 163d
000002a0: e4be e0bc 4e35 5e3b d580 bf3c e919 ad3c
000002b0: fa25 403c 11de d5bb 9f3e 7b3d 444b 50b9
000002c0: 88d9 6dbc 31fe 8d3b 05f2 d53c cb00 b43c
000002d0: 55fc 563d 2aca 67bb 7ed5 cbbc c6c2 0b3d
000002e0: 1957 343d 1766 1d3c dbc6 5cbd af16 113c
000002f0: d243 e4ba 18af fa39 6244 483c 421b 6f3a
00000300: 5425 a13c 8814 b63b 7ebe 1b3c f2b6 833d
00000310: 16a9 053d 5b9e b63b 7cca bc3c dd13 183b
00000320: d80b 1e3d 433a 903d e43a 843c 86cd ff3c
00000330: f70d b4bc bbaf 42bc 02a2 8d3d 90ee 01bd
00000340: 025d cc3c 24c3 1fbc 136e 3a3c 493a ddbc
00000350: 4cd3 203c bdee 5fbc d15f d5bb c4c3 20bd
00000360: f435 0f3b 220f 623a e99f 203b a7f9 6dbb
00000370: e4bd 883d dc1d 173b 749f babb d976 06bc
00000380: 6f9e 83bb e2d3 b63c 8455 503b 3c2c bbbc
00000390: d4a7 de3c 978c 61bc ff04 e03c 0f17 2d3c
000003a0: c57c ef39 c99c 273b 9fbb e23c 6bfc 3e3d
000003b0: 662e 663c 59c5 01bc 0805 08bc e3ee 7cb7
000003c0: aee8 673d 3bf7 0dbd f1f2 cf3b c101 37bc
000003d0: 86d8 9b3b 6260 acbb 91d0 663c aefe 1a3c
000003e0: 97aa 87bc 2869 193d b52b 373c fba8 283c
000003f0: 8dfb 1b3c 163f 063c b22d bebc 3610 ce3c
0.07686781 -0.0063503217 -0.074713126 0.008306367 0.015083229 -0.006477852 -0.025687732 0.029678084
-0.00079081504 0.011006781 0.022201136 0.016407343 0.041702405 0.027067475 0.019995011 0.0015015794
-0.00047959274 0.038338978 -0.012548841 4.1454285e-05 0.10348406 0.04038075 -0.01953322 0.07742481
0.018046582 -0.00016752728 -0.0019539124 0.018645357 -0.016273016 0.031916887 0.021779783 -0.057799887
-0.012400661 0.029645804 -0.0098263845 -0.009096517 0.036916137 0.010347693 0.01589335 0.023692887
0.02000396 -0.018038105 0.019276645 -0.00934297 0.04120504 0.008284353 -0.10022954 -0.01001492
0.00367281 -0.00024854325 -0.03680453 0.028424377 0.024199894 -0.020364217 -0.06980326 -0.012201699
0.027155282 -0.022684915 0.012326345 0.011783291 0.0008726326 -0.022432232 0.026796639 0.013376678
0.029216753 0.031263586 0.0037878929 0.031647917 0.02385128 -0.009377674 0.018923374 -0.0057444586
0.010129894 0.07591132 0.015717072 0.003135569 0.034600593 -0.011669802 -0.0036467449 0.016901143
-0.012524098 0.030965405 0.0021458175 0.00023756135 0.061666895 0.024035603 -0.008408505 -0.009080306
0.008732524 0.044545945 -0.007948816 -0.009929439 -0.078750916 -0.009529593 0.01215323 0.037349515
0.008327299 -0.034877393 0.005617127 -0.01995729 0.019637885 0.0063537424 0.00403383 -0.023820976
-0.027678527 -0.0105748875 -0.011903917 -0.01966677 -0.07336103 0.027911814 0.01211007 -0.014718732
-0.031512536 0.001707458 0.012572861 0.021286117 0.07176407 -0.007777025 0.0036178057 0.039017793
0.055494264 0.004372047 0.017358208 -0.020618865 0.014584299 0.029116014 -0.034517236 0.010860002
0.0012502857 0.0118099 0.04549708 -0.028515939 0.0017000596 0.0022901199 0.020295627 0.03494504
0.0049623717 -0.019206423 -0.054060005 0.030280214 0.057917263 0.012693309 0.039220363 -0.0067332126
-0.016941585 -0.051649194 0.014832508 -0.040143084 0.023517782 0.05553091 -0.04881229 -0.057567395
0.02229716 0.03265661 -0.059506323 0.024481978 0.03007926 -0.049731947 -0.020151481 0.0028648647
0.008537798 0.02005717 0.024607806 0.026357837 0.09391872 -0.0030097242 0.0031161038 0.036807735
-0.027434774 0.0033906284 0.023376862 0.021130519 0.011727804 -0.0065267165 0.061339017 -0.00019864464
-0.0145171955 0.0043332805 0.02611638 0.021973034 0.052486736 -0.0035368302 -0.024882074 0.034121297
0.044028375 0.00960686 -0.05390058 0.008855506 -0.0017415232 0.0004781417 0.012223335 0.0009121188
0.01967112 0.0055566467 0.009505866 0.064313784 0.032631956 0.0055730767 0.02304577 0.0023205199
0.038585514 0.070423625 0.016141362 0.03122593 -0.021979315 -0.011882718 0.06915666 -0.03172165
0.024946693 -0.009751115 0.011378783 -0.027005332 0.009816002 -0.0136677595 -0.0065116663 -0.039249197
0.0021852227 0.0008623471 0.0024509376 -0.0036312134 0.06676844 0.002305857 -0.005695278 -0.008207046
-0.0040166895 0.02231783 0.0031789253 -0.022848241 0.027179636 -0.013766429 0.027346132 0.01056458
0.00045678593 0.002557563 0.027677355 0.046627443 0.014049148 -0.0079205865 -0.008301981 -1.5075991e-05
0.056618385 -0.034659605 0.0063460995 -0.011169852 0.004756036 -0.005260513 0.014087812 0.009460134
-0.016560836 0.0374538 0.011179854 0.010294194 0.009520424 0.008193752 -0.023215149 0.025154214

action_model._discrete_distribution.branches.1.bias f4 [2]
00000000: bf9f cebc bf9f ce3c
-0.025222657 0.025222657

action_model._discrete_distribution.branches.1.weight f4 [2, 256]
00000000: 0c6a 0bbd 775d b73c b6a5 fe3a 52d5 303c
00000010: 2800 d63b c9ff 9f3c d524 933c e873 2ebc
00000020: 2b07 c63b 262d 47bd 7e6b 1f3c 47dc a53c
00000030: ef1b 0fbd 3f1b 5cbd 4d9f eb3c b707 1d3d
00000040: 79db 573d 0ebd 36b8 b055 92bc 021d 9e3c
00000050: 534a 27bc 2eae 67bc 9625 893c 5d2f cfbc
00000060: f77b 813c c34f ab3b 529e 91bc db37 7cbc
00000070: 91b5 cc3c 26ef 1f3b 1e26 cabc 01d6 5f3d
00000080: 1063 8dbc 7f24 f2bc ff50 66bb f4b9 fd3b
00000090: 411a 12bd 0982 5dbd d312 08bd 5e91 263c
000000a0: eff2 d83b 14e1 1bbc 4c7d 5d3d a59d abbc
000000b0: afee 3cbd a137 48bd 1f06 12bd e0e0 a7bc
000000c0: b65b 713c 6293 423c 0beb d03c b671 16bd
000000d0: ae52 5c3d 8be8 2ebc 1015 23bd d69c 25bb
000000e0: 5c25 fe3c d8f8 fb3c f7f2 21bc c24e b3bd
000000f0: 165e 00bd 9d7f 733c 694e 013d e44d 48bc
00000100: 6f9a 96bc f528 173d 8cc6 f83a b6ef 003d
00000110: 7b3d 2abc 7e77 823c 0868 17bd 7003 113c
00000120: a3d1 edbb 71cb f7bc c649 80bc f0a9 343b
00000130: 13be 45bc 4197 783b 3503 fbbc b283 10bb
00000140: 19af 52bd a206 d6bc 3620 173b bb1e 853b
00000150: 1b0e f63c c545 1c3d 6e15 13bc 99ba 263c
00000160: 378b c23c 5a37 193d df26 4a3c 5f29 0a3c
00000170: d83a 4e3c 462f 43bc 6359 0dbc 7324 32bc
00000180: 7a55 8f3a 6d46 6cbd e11e 70bc 8787 ce3b
00000190: 9f00 943a 67c1 a1ba cc31 913b 0a7b 0d3d
000001a0: 748f 24bc 8058 8b3c 4add 12bb c318 d83b
000001b0: 1cdd 9c3d 16d2 7cbd 44eb 5ebd bb20 a53b
000001c0: 1aee 0b3c 0fb2 8d3b c6c3 b23c 7dd1 debb
000001d0: 6c34 953c 24af aebc 4cc5 a53c 6539 5bbc
000001e0: 6a81 57bb d251 c4bc fae7 0abd 7f49 b3bb
000001f0: 2598 22bc 60ba 073d 5a6c e73c 9d56 8e3c
00000200: 1b8f f5bc b405 553d f24e 90bd 2d27 b1bb
00000210: 4c0c 623a 5236 fc3b 23d3 053d 330c 62bb
00000220: ae7b c53c 8882 663b 92bf ca3c b617 6ebc
00000230: 3eeb 893c dd65 c93c dbb6 58ba d9c9 3a3d
00000240: 5302 dabc 5376 6f3c 30aa 863b d387 293d
00000250: a3ee 4dbc e58a ee3c ae33 85bc 10ee 04bc
00000260: 3ba2 f039 8c9f 563d d075 e6bc d575 543b
00000270: 92da de3b c744 15bd f27a b53b 184d 073d
00000280: c8b7 933c 905f 13bd e938 2a3c 2552 1abc
00000290: 3d40 9f3b 63ef 83bc f85c 0039 ce17 f23b
000002a0: 7964 3ebc b854 d93c 1114 143d 11ce ab3b
000002b0: 48fb 293c e099 b0ba 6aa3 fc3c ae44 0739
000002c0: c540 a13b 4351 6b3c 5f5a ce3b b761 5bbc
000002d0: ba40 e0bb e1b1 ecbb 1b7d a5bc 4c1d f43c
000002e0: 6f10 3cbc c9c1 873c 75d9 fabc af87 f9bc
000002f0: c7ae 483d 6c5e c23b 8b94 7d3c 4f3d 7e3c
00000300: 6e9d 133c 1630 03bd f350 0a3b da81 713c
00000310: 29fb 6dbc 046e e73a 5c4a 69bc 7e40 4dbd
00000320: 705b bebc 9d52 193c 3008 45bc ed82 3d3c
00000330: 6d49 0dbd 5863 83bc f5a5 68bc c09b 843b
00000340: 466f a83c 11fc 9c3b dadc 3a3b 1c66 7d3a
00000350: d81d 06bd 4c67 1bbc 048e 2fbb a385 29bd
00000360: 29e6 1c3b a987 9dba 1f3f a6bb 573c ccbb
00000370: 6071 dbbd d80d a1bb bab7 f93b 59b3 43ba
00000380: c94e 9c3b e419 0abd e6ca 9038 615c c7bb
00000390: fc45 803c 1e96 9b3c cf5b b93c 74fa 1c3c
000003a0: 3e51 f43a e0f6 6fbc dc88 563c c0ef a6bc
000003b0: 10b2 6c3c e8ed 36bd 8ca7 81b7 d018 79bc
000003c0: 7743 0a3d a0d7 1fbd 6b7e dcbb 0154 40ba
000003d0: dd24 dfbb 2b6f 3a3c 5668 4d3a b81e e03b
000003e0: b07f 82bc 49bd 34bd 58b1 193c f952 37bd
000003f0: 4fed 543d f186 cbbc 948f 203c feef 2fbc
-0.03403668 0.022383435 0.0019428048 0.010793047 0.0065307803 0.019531148 0.017961899 -0.010647751
0.006043335 -0.04862704 0.009730218 0.020246638 -0.03493875 -0.05373692 0.028762484 0.038337436
0.05269954 -4.3568252e-05 -0.017863125 0.019300941 -0.010210591 -0.014140649 0.016741555 -0.02529114
0.015806181 0.005228014 -0.017775688 -0.015394176 0.024988921 0.0024404018 -0.024676379 0.05464745
-0.01725915 -0.029558418 -0.0035143492 0.0077431146 -0.03566957 -0.05407909 -0.033221077 0.010166494
0.006620757 -0.009514112 0.05407457 -0.020949194 -0.046126064 -0.048881177 -0.03565037 -0.020492971
0.014731338 0.011875959 0.025502702 -0.036729537 0.053789787 -0.01067556 -0.03981501 -0.0025270483
0.031023674 0.030758306 -0.0098845875 -0.08755256 -0.031339727 0.014861968 0.03156892 -0.012225602
-0.018384187 0.036904294 0.001898007 0.031478606 -0.010390635 0.015926119 -0.036964446 0.008850917
-0.0072576567 -0.030248376 -0.015660178 0.002756711 -0.012069243 0.0037931951 -0.030641178 -0.0022051153
-0.051436517 -0.02612621 0.002305997 0.0040625012 0.030036023 0.038152475 -0.008977277 0.010176324
0.023748023 0.037406303 0.012338369 0.008432715 0.012587272 -0.011913126 -0.0086272685 -0.010872948
0.0010935508 -0.05768435 -0.0146558 0.006302777 0.0011291689 -0.0012340964 0.004430985 0.034541167
-0.0100439675 0.017009974 -0.002240973 0.0065947487 0.07659361 -0.06172379 -0.054423586 0.005039302
0.008540655 0.0043242048 0.021821868 -0.0067998753 0.018213473 -0.021323748 0.02023568 -0.013380383
-0.0032883533 -0.023964796 -0.033912636 -0.005471408 -0.009923969 0.033136725 0.028249908 0.017375285
-0.029975465 0.052007392 -0.070463076 -0.0054062814 0.0008623048 0.007696905 0.03267206 -0.0034492135
0.024106827 0.0035173018 0.024749551 -0.01453202 0.016835805 0.024584705 -0.00082669937 0.045602653
-0.026612436 0.014615613 0.0041096434 0.041389298 -0.012569102 0.029118964 -0.016259994 -0.008113399
0.00045897238 0.05239825 -0.02813235 0.0032418866 0.006800958 -0.036442544 0.005538338 0.033032507
0.01803197 -0.035979807 0.010389545 -0.009418999 0.0048599527 -0.01610536 0.00012241665 0.0073880916
-0.011620634 0.026529655 0.03615195 0.005243071 0.0103748515 -0.0013473593 0.03083964 0.00012900188
0.004921051 0.014362636 0.006297394 -0.013389996 -0.0068436535 -0.0072233533 -0.020201256 0.029799126
-0.011478527 0.016571896 -0.03062127 -0.030460207 0.048994806 0.005931666 0.01547731 0.015517547
0.009009702 -0.03202828 0.0021105378 0.014740432 -0.014525213 0.0017656689 -0.01423892 -0.050110333
-0.02323696 0.009358075 -0.012025878 0.01156686 -0.034493852 -0.016038582 -0.0141997235 0.004046887
0.020560872 0.004790791 0.0028512985 0.00096663996 -0.032743305 -0.009485077 -0.0026787529 -0.04138721
0.0023940897 -0.0012018579 -0.0050734426 -0.006232779 -0.10714984 -0.0049149804 0.007620779 -0.00074653846
0.004770134 -0.033716097 6.904248e-05 -0.0060840105 0.015658371 0.01899248 0.022626786 0.009581197
0.0018639935 -0.014646262 0.013094153 -0.020377994 0.01444675 -0.04466048 -1.5456018e-05 -0.01520367
0.033755746 -0.039023995 -0.0067289374 -0.00073367363 -0.0068098144 0.011379044 0.00078356767 0.0068395995
-0.015930027 -0.04412583 0.009380661 -0.044756863 0.051984128 -0.024844619 0.009799857 -0.010738371

network_body.linear_encoder.seq_layers.0.bias f4 [256]
00000000: 03b9 5bbc 4be1 19bb e454 303d 45d9 ec3c
00000010: 9635 a23c b671 c33b f9bb bbbc 59b0 eeb9
00000020: 4e9b e2bc f113 3f3c fec1 9a3d 4367 ad3d
00000030: a2a3 11bd 3c4d 983d 6ab7 a03b a2b0 1e3d
00000040: 0c7d bbbc 33fc 1d3d 48c3 c73c 84e7 af3d
00000050: c9a7 d6bb 9ef8 5fbd a453 42bd 1fc3 5abc
00000060: bf76 3f3d 3735 c73c 2796 e93c dcf7 45bd
00000070: 2e22 d43c 19c4 b8bc 95e2 713b b7e1 4cbd
00000080: d7f9 24bc c187 cdbb 925d bebc 2055 db3c
00000090: 0232 a6bd f91e 5c3c 90f0 7c3c 9483 a93d
000000a0: 6377 c2bc 0f26 81bd df16 09bd 6d35 8c3c
000000b0: f348 2abc 4976 b6ba 9f61 6ebc 800b f83d
000000c0: f140 efbb 16a0 67bd 3282 103d bd46 ac3c
000000d0: 30b5 8cbd c24f 4f3d dbb7 a6bd 0979 3f3c
000000e0: 163e 3abb 1138 9ebd 3586 083d 6384 3f3d
000000f0: 649d f53c 1903 d1bb 1fd3 18bd e424 a8bb
00000100: 9e32 3eba 04df fcbc c2bd 8f3d 7405 0a3d
00000110: a114 a03c 7b8a 473d b90d 4bba a375 27bc
00000120: fea5 0bbd 6b8d 27bc 6906 afbc 0797 883b
00000130: e1e5 c1bd ac65 0abd 7cfd 1dbd 6da7 37bc
00000140: 36fc 10bd c53a 7dbc 3bbe 8cbc f53c 81bc
00000150: 7d50 9fbc ec7c 1a3d f8a6 adbd 8bd0 2cbd
00000160: f4b9 b4bd 0068 aabc ba97 bc3c 0577 513d
00000170: e35d 34bd d2f0 acbd f6aa be3c dadf 5abd
00000180: 3e76 df3b d693 7dbd c657 a6bc 4538 97bb
00000190: 01a5 27bd dff2 50bc 3bb3 893b 851d 6fbd
000001a0: 3c1f 633d cd3f e3bd 2f4c a93d 6826 acbd
000001b0: 9e31 adbd 39fd cc3d cadd e9bc dd34 9bbd
000001c0: 68f1 313c 375c babd 0354 b5bc 5e3d a33c
000001d0: 28b3 0abd 47ed caba 2df9 f3bc f452 9dbd
000001e0: cf7c 593c cf13 173d a71b 14bc 5b0f e8bb
000001f0: 34b4 32bc d967 9ab9 9eb6 c23c 605b 71bc
00000200: 9625 f7bb f53d c2bc ece5 58bc 322d c43c
00000210: 4206 c8bc 1757 9abc a30f 823c fb50 f2ba
00000220: d427 93bd 1716 9bbd f0e7 be3c 3c01 4e3b
00000230: 0bff f73c f2e5 80b9 03aa 5fbd ccd5 cb3c
00000240: 9322 5cbd 4b99 1fbd 9a03 873b 21d6 1a3d
00000250: 21b0 11bd d216 06bc 5f29 a33b 9224 18bd
00000260: cda5 0a3d 85e4 d53d cdf3 54bc b7a2 183d
00000270: d660 fc3c 1224 dc3d fcbb f2bc 175d 573c
00000280: 9060 f93c 9ef6 84bd 1af2 eabc 339d 493d
00000290: e4b2 2bbd 2ad2 00bd 5ce4 253e ec4e a8bd
000002a0: f685 aa3c a951 10bd c866 983c 1c68 90bd
000002b0: 25b9 d7bc b6e9 ffbd ae79 b63c 2844 703d
000002c0: 9468 a93d 3405 193d 8bb7 0f3d dbda 823d
000002d0: 006d 4ebd beae 0f3d 77a3 cebc 1c85 49b7
000002e0: fe12 573d bef1 8dbd c260 92bd 4b7e 7d3d
000002f0: 5f89 a93c bb8e 06bd 9300 49bc e3af 4dbd
00000300: 85c0 40bb 7cb7 183c a459 ca3b 2c7f 88bd
00000310: 6840 a8bc 943d 173d 867c 663d d420 133d
00000320: ed14 d13b 6843 ccbc f3e9 f93b b6ee 98bc
00000330: 7094 0a3d 4dc4 64bd 7585 e2bb cd5e 8fbc
00000340: 8019 20bc 843f 71bd d94a a23c 7e0b 21bc
00000350: 51fb e3bc f8ac d23b 9fa0 b23d 3d44 3fbd
00000360: 0789 a0bd 2811 2fbd c30b 84bd 16dc 20bd
00000370: 5043 02bd d1cf d1bc 3e67 7bbd a4dc ccbc
00000380: ef68 71bd 750c 903b 624c 863d eba9 1f3d
00000390: 965c 463d 834b e73c 8412 373d 0864 64bc
000003a0: 4f3e b13a 9725 48bd 3181 9cbb 89af 513d
000003b0: 3505 723d 63ed c83c f7c4 ddbb a3f7 d73c
000003c0: b617 6abd f070 6ebc 5389 bbbc 0d22 e63c
000003d0: 632b 563d d837 71bd 3a07 a3bc dea8 b3bd
000003e0: 818f 7bbd 622e a1bc b746 2bbd 7470 263c
000003f0: 3d7f f03c aa39 303c 53de 29bd ced0 c3bd
-0.013410809 -0.0023480232 0.043049708 0.028912196 0.019800942 0.005964483 -0.02291678 -0.00045526287
-0.027661946 0.011662469 0.07556532 0.08466961 -0.035556443 0.07436606 0.004904677 0.03874267
-0.022886775 0.038570594 0.02438511 0.0858908 -0.0065507633 -0.05468046 -0.047443047 -0.013352185
0.046744104 0.024317367 0.028513981 -0.04833208 0.025895204 -0.022554444 0.0036908735 -0.050019946
-0.010069332 -0.0062722866 -0.023237977 0.02677399 -0.08115007 0.013435119 0.015438214 0.0827705
-0.023738569 -0.06306087 -0.033469077 0.01711532 -0.010393369 -0.001392075 -0.014549642 0.121115685
-0.007301443 -0.056549154 0.035280414 0.021029824 -0.06870496 0.050613172 -0.081405364 0.011686572
-0.0028418354 -0.077255376 0.033331115 0.046757113 0.029982276 -0.006378543 -0.037310716 -0.005131351
-0.00072554674 -0.03086806 0.07018615 0.033696607 0.019541087 0.04871605 -0.000774588 -0.010220918
-0.03409385 -0.010226588 -0.021365361 0.0041683945 -0.09467674 -0.033788368 -0.03857182 -0.011209351
-0.035396777 -0.015455906 -0.017180553 -0.015776137 -0.01944756 0.03771679 -0.084791124 -0.04219107
-0.0882453 -0.020801544 0.023021568 0.051138896 -0.04403485 -0.0844437 0.02327488 -0.053436138
0.0068195155 -0.061908565 -0.020305526 -0.004614862 -0.040928844 -0.0127532175 0.004202274 -0.05837776
0.05544971 -0.110961534 0.08266484 -0.08405763 -0.08456729 0.10009236 -0.02854814 -0.07578442
0.010860778 -0.0909962 -0.022134786 0.019926723 -0.033862263 -0.0015482091 -0.029781902 -0.07681838
0.013274386 0.036884125 -0.009039796 -0.0070819086 -0.010907222 -0.00029450541 0.02376872 -0.014731258
-0.0075423224 -0.023711184 -0.013238411 0.023947332 -0.024417046 -0.018840356 0.015876597 -0.0018487269
-0.07185331 -0.07572573 0.023303956 0.0031433841 0.030272981 -0.00024585385 -0.054605495 0.02488222
-0.05374391 -0.03896455 0.0041203024 0.037801865 -0.03556836 -0.008184152 0.004979297 -0.03714425
0.033849526 0.10443977 -0.01299758 0.037264552 0.030807894 0.10749067 -0.029630654 0.013144753
0.030441552 -0.06492351 -0.028679896 0.049222182 -0.04191865 -0.031450428 0.16200393 -0.08218178
0.02081583 -0.035234127 0.018603697 -0.07051107 -0.026333401 -0.12495749 0.022274818 0.05865875
0.082719 0.037358478 0.03508715 0.063893996 -0.05039692 0.035078757 -0.02522443 -1.20115255e-05
0.052508347 -0.06930874 -0.07147361 0.06188802 0.020695386 -0.032850962 -0.012268203 -0.050216567
-0.0029411626 0.00932109 0.006175237 -0.06664881 -0.020538524 0.03692396 0.0562711 0.03591998
0.0063806684 -0.024934486 0.007626766 -0.018668514 0.033832967 -0.05585127 -0.006912882 -0.01750126
-0.009771705 -0.058898464 0.01981108 -0.0098294 -0.027829798 0.006429311 0.08722042 -0.046695936
-0.07838636 -0.04274097 -0.06447556 -0.03927239 -0.031802475 -0.02561179 -0.061377756 -0.025007553
-0.058937963 0.0043960162 0.065575376 0.038980406 0.04842814 0.028234249 0.044695392 -0.013939865
0.0013522598 -0.048863973 -0.004776143 0.051192794 0.059086997 0.024527257 -0.006767865 0.0263632
-0.05715152 -0.014553294 -0.02289263 0.028092409 0.05228747 -0.058891147 -0.019900907 -0.08772443
-0.061416153 -0.019675437 -0.041815486 0.010158647 0.029357547 0.010755936 -0.04147179 -0.09561311

network_body.linear_encoder.seq_layers.0.weight f4 [256, 9]
00000000: 039a 7b3e 01f3 d4be bc3a a7be c524 11bd
00000010: ca18 f53a 915d acbe cfc2 7a3e 3ca3 38be
00000020: 0976 ff3d e30c db3c 42bf 563e 3d7b 19bf
00000030: 5d3a b0bd 5522 363d f007 c6bd aadf a23d
00000040: 432d 4d3f 28f2 7e3e 9db2 123f c5cd 383e
00000050: ad59 fcbe 7ae0 313d 05c2 2c3c 786c 713e
00000060: 8af1 0fbf 1572 003e 8776 203d 1bec 223e
00000070: 122a 4e3c ec42 bcbe cbee 0cbe 7343 fdbd
00000080: 17b4 3ebe cf58 353f 7fc1 7bbe c854 b33e
00000090: 2d07 f3bd dcfe 393e 1c47 1d3f 269b 153d
000000a0: c0fd d2be ad45 82be 8f49 a9bd 07b9 5fbe
000000b0: 7393 b9bd 48ed 04bd a7ff 7c3d a90a 04bf
000000c0: ed6b 0bbf 4758 863d dc1c 983d 702c d9be
000000d0: 8e4a 8abe 656b 3bbc b584 9fbc f771 95be
000000e0: a46a 1bbe 9c39 993c f376 f8be 8660 5abd
000000f0: 4eda 6dbe 2072 633d 4428 09be 467a a33e
00000100: d233 f1bc e402 15bd d1ab 043d 4cdb 53be
00000110: 43f9 aabd 3833 b93d bfc4 bfbe f3e1 37bd
00000120: fe27 06bc 681e 57be 3ec7 193f 7235 17be
00000130: be6f 043f de8b 763e 8afc 20bf 7e74 cfbe
00000140: 8b06 44be b10a a5be e87e 063e 0910 adbe
00000150: fd62 bebe f011 293f 87cd 9bbd 77b6 d9be
00000160: efaf 9d3e 7404 ad3e 7d85 f93e 2004 013e
00000170: 71cc 0bbf 05db 97be f335 39be 0b32 753e
00000180: d863 03bf 7ce1 f6be 69a3 473e a7dc 3dbe
00000190: d435 58bc e4dc aebe 1f7f c93b 960c 6e3d
000001a0: 440d bc3d b8b2 2fbe 76fa c53c 1772 b03d
000001b0: 92d7 1cbd dd03 463e 0f22 96bd b4d7 233f
000001c0: 006f afbd a759 a2be 3438 c13d 1f98 d6be
000001d0: 787d a93e 7c65 28bf 234a 1a3f 91ae a3be
000001e0: fecf a93e 25b5 d9be 2bcc b73d 149f d5be
000001f0: 5ea5 0e3f c81a 653c 8c2d 7dbe aad1 10bf
00000200: 5fa9 92bc 627b 953b ec41 6cbe 5b82 9c3e
00000210: 7857 923e cd2e 01bf b760 d4be 760e ecbe
00000220: 3d74 2a3f 772d 763e 379a f73d c4f7 d53d
00000230: 778d db3d 6a13 4c3e 3aba 5abe 9e47 063e
00000240: dbcf e03e d215 243d 4078 c7be 019f fbbb
00000250: ae4b 57be 1804 bbbe 8c10 0cbf 482f d13d
00000260: 25d9 31be 4e1c 94bd 5461 8e3e d53f 03bf
00000270: aeee 8cbe 135a 2bbe 3bd1 10be 74c9 a9bd
00000280: a843 76bd 9b75 873e 5bba d73e 4c33 133c
00000290: 9abb 633f b373 a83e 29fc 8abd d063 753e
000002a0: 367a 513e 52bf 863e 68e0 0f3f fb97 47bf
000002b0: 48e3 8fbe 3cb3 f53d cf05 823e 103a d2bd
000002c0: e710 c23e 9a76 5fbe 6e83 273f 3d26 3a3e
000002d0: 3088 cd3e 63f5 843d 6f34 b1be ae9c c2be
000002e0: 6c73 20be 491f 92be a42e 85bf af6d 6fba
000002f0: cd38 b9bd 900c b43d 2d1c 09bd 306c 2dbd
00000300: 6fe9 99bd c5a6 81be 97ef 38bf f417 363e
00000310: 06a1 393e d798 fabd 1fe4 923e 9724 c2be
00000320: f364 d53d 90ad 66be a0cf 00bf 053a dbbc
00000330: a0dc dc3e 54e4 9fbb 5712 dfbe 153f 023f
00000340: df47 4d3d 7dbd 62be 69f6 b0bc 1636 073d
00000350: f90e c1bd 17e9 f5be 8492 2dbd 5bc5 893e
00000360: 750d 89bd 163e 9a3d 4db7 8dbe 695d ec3e
00000370: 2c0c a43c c140 9abe 1d72 163e 0c45 9e3e
00000380: a856 733e de6a 123e a49f 0c3e dff2 603e
00000390: 40ce 683e 7cb2 b53e 668a 92bd f2c0 0b3f
000003a0: 97ce 55be 408d 4fbd 596c 99be 46a2 213e
000003b0: af46 883e cdb9 72bf cec2 dfbb 6981 f83e
000003c0: 8cec a13e 33cf eebe 902e ee3c 66b9 96bd
000003d0: 271a cebd 56f0 123f b8ba 3ebe cfe8 77be
000003e0: c4ee 793e 735d 8d3a a77c 8a3d 555f f03c
000003f0: f794 d73e f65b 73be fc58 88be c37e 7dbe
0.2457047 -0.41591647 -0.32661998 -0.035435457 0.0018699404 -0.33665136 0.24488376 -0.18031019
0.12473685 0.026739543 0.20971397 -0.5995367 -0.08604882 0.044466335 -0.09669483 0.07952817
0.8014719 0.24897063 0.5730379 0.18047245 -0.49287167 0.04342697 0.010544305 0.23576534
-0.56227934 0.12543519 0.039175536 0.1591038 0.0125832725 -0.36769807 -0.13762967 -0.123663805
-0.18623386 0.70838636 -0.24585532 0.3502562 -0.11866603 0.18163627 0.6143663 0.036524914
-0.4120922 -0.25443783 -0.08265983 -0.21847926 -0.09061327 -0.03245285 0.061767247 -0.51578766
-0.54461557 0.06559806 0.074273795 -0.42416716 -0.27010006 -0.011439179 -0.01947246 -0.2918851
-0.15177399 0.018704228 -0.4852825 -0.05331471 -0.23227808 0.05552876 -0.13394266 0.31929225
-0.029443655 -0.03637971 0.03239042 -0.20689124 -0.08348324 0.09042972 -0.37454793 -0.044893216
-0.008188246 -0.21007693 0.60069644 -0.14766482 0.51733005 0.24076793 -0.62885344 -0.40518564
-0.19143121 -0.3223472 0.13134348 -0.33801296 -0.37184897 0.66042995 -0.076075606 -0.42522022
0.3079829 0.3379246 0.48734656 0.1259923 -0.5460883 -0.29659286 -0.18086986 0.23944871
-0.51324224 -0.48218906 0.1949593 -0.18541203 -0.013196427 -0.341529 0.006149187 0.05811747
0.09182218 -0.1715802 0.02416728 0.08615511 -0.03829152 0.19337411 -0.07330715 0.6400101
-0.085660934 -0.31709024 0.09434548 -0.41912934 0.33103538 -0.6577985 0.60269374 -0.3196912
0.33166498 -0.42521015 0.08974489 -0.4172293 0.5572108 0.013983436 -0.24724406 -0.5656992
-0.017903028 0.0045618275 -0.23072022 0.30568203 0.28582358 -0.5046204 -0.41480038 -0.46104783
0.66583616 0.24040781 0.12089961 0.10447648 0.10720342 0.19929281 -0.21360102 0.13113257
0.4390858 0.040059872 -0.3895893 -0.007678867 -0.21024963 -0.3652656 -0.5471275 0.10214096
-0.1736799 -0.07231961 0.2780863 -0.51269275 -0.27525848 -0.1673358 -0.14142315 -0.08290377
-0.060123116 0.26456913 0.42134365 0.008984398 0.8895813 0.32900771 -0.06786377 0.23963857
0.20456776 0.2631784 0.5620179 -0.7796628 -0.2810309 0.11997077 0.25395057 -0.10264981
0.3790352 -0.21822587 0.6543492 0.18178649 0.40142965 0.06492116 -0.34610316 -0.38010162
-0.1566903 -0.28539494 -1.0404859 -0.00091334706 -0.09044037 0.087914586 -0.033474136 -0.042339504
-0.07515227 -0.25322548 -0.72240585 0.17782575 0.18127832 -0.12236183 0.28689668 -0.3791854
0.10419645 -0.22527146 -0.5031681 -0.026761064 0.43137074 -0.0048795138 -0.4356868 0.50877506
0.05011737 -0.22142597 -0.021601873 0.033010565 -0.09426684 -0.48029396 -0.042376056 0.26908383
-0.0669202 0.07531373 -0.2767891 0.46165016 0.020025335 -0.30127528 0.14691968 0.30912054
0.23763525 0.14298579 0.13732773 0.21967648 0.22734928 0.35487735 -0.07155304 0.54591286
-0.20879589 -0.050671816 -0.29965475 0.15784559 0.26616427 -0.9481476 -0.0068286425 0.48536232
0.31625783 -0.46642455 0.029074937 -0.07359581 -0.10063582 0.57397974 -0.18625915 -0.24209903
0.24407488 0.0010785296 0.06762057 0.029342333 0.4210584 -0.23765549 -0.2663039 -0.24755387

network_body.linear_encoder.seq_layers.2.bias f4 [256]
00000000: 2c44 9fbc cd3c f1bb c201 b1bc 7971 9abc
00000010: 700c b8bc 8047 91bc 054a f1bb dd5a 0fbd
00000020: 6c4b 97bc 80cb b1bc e1f4 a7bc ff53 cfbc
00000030: 2123 743c 6242 ffbc 7914 86bc a339 9bbc
00000040: 8a21 37bc 6c23 78bc 4be1 9dbc 2054 97bc
00000050: fd2a 3e3c 2c19 08bd 1331 24bd bc52 72bc
00000060: d313 cebc 519d 27bc 74d9 7bbc c9cc bfbc
00000070: 4ea8 93bc c420 01bd 3857 303a ce9a ebbc
00000080: 69dd 0ebc 1c9b b63b 8638 dfbc 4f6d 84bc
00000090: 13a7 083c fb2d bdbc 6628 c0bc 73a0 e0bc
000000a0: 388e aebc abf8 77bc 3079 93bc 6c42 57bc
000000b0: c210 1cbb 9fdb aebc ab07 483b ae5d d8bc
000000c0: 9901 7fbb a4ed 0bbc 0ec5 29bd 7c59 e0bc
000000d0: cb4d 78bc 1889 d0bc 6549 fabb 6c9d bebc
000000e0: ffe2 97bc 48ef 99bc 0779 06bd dec0 e73b
000000f0: 3db1 58bc c10e 8bbc 3d92 6cbc d278 c1bc
00000100: 3dba 12bd 486a 45bc d7c4 c6bc b305 e0bc
00000110: 6a6b 083b fee9 dcbc a6d4 d6bc 4b25 8fbc
00000120: 787b afbc e7fd 06bc 6fdb a2bc ad05 b9bc
00000130: 58cc 0cbd b6ad 62bc 5784 f8bc adc5 85bc
00000140: 9db6 d6bc 6c0a d5bc 715d 49bc a60f 07bd
00000150: d941 bfbb 39ae f4bc 8965 e8bc 5560 babc
00000160: a943 64bc 7a46 31bc 0d77 d3bc 8d5b d6bb
00000170: abed a2bc 3ebe c5bc fb0b 3dbc b66d 8dbc
00000180: 35ad 70bc 2e12 ebbc dcff 54bc de38 84bc
00000190: 1e93 4dbc 8082 86bc 7de5 3ebc e0fc 37bc
000001a0: bbff 16bd 3847 02bd 7e1e b2bc 4c63 95bc
000001b0: 222d 55bc 1858 8bbb d2b3 59bc 77f5 2cbd
000001c0: 063b 02bc fa78 efbb b639 e9bc 8819 c4bc
000001d0: 650c debc f63b 8bbc 43c0 a4bb 3856 c9bc
000001e0: d3de 13bd a36b 03bc d695 b9bc d880 85bc
000001f0: 6d4c b03b ebfd 0ebd 7310 e1ba 966b c2bc
00000200: 0a97 a2bc 4bed f2bb 6a4c e8bc 888e b4bc
00000210: 24e1 9db8 49aa b4ba c6ee e7bc f7c1 d1bc
00000220: 9384 9abc 3816 cdbc 4ccc 9dbc ec9d f0bc
00000230: bb8f aabc 6fcc 2fbc b1ef 2cbc e5c8 31bd
00000240: 8678 5bbc 81bc 17bd 09b7 85bc d6d8 40bc
00000250: 0f24 8dbc 602f b43b c2b3 53bc 971c db3b
00000260: eaed 92bc 574e 04bd 68af 21bc 343e b4bc
00000270: 3ac6 f8bc f2cd 05bd 91ce 5ebc 438c 93bc
00000280: a93d 18bd 79a0 6ebc ad7d 05bd 4c8a 88bc
00000290: 32ea dabc 56f4 0cbd 3758 b9bc 07e4 04bd
000002a0: f230 dcbc 94ca 6dbc 481e 6cbc d73e b3bc
000002b0: 3559 04bd a145 74bc be94 acbc 0064 2bbc
000002c0: 5822 c5bc 400c bdbc a1a7 e4bc 346f c3bb
000002d0: 6f61 14bd 6abe 23bc c6b0 08bd b056 dbbc
000002e0: f993 91bc 1f73 bcbc b6c2 9fbc dc39 b9bc
000002f0: fc83 c4bc e111 ddbc 1376 03bc 677b cabc
00000300: 1217 c8bc 20b5 28bd 17db 94bc 6025 46bc
00000310: 68c8 c6bc a7c3 94bc 1c6c 42bc 3652 f5bc
00000320: 47b3 cfbc 5acf babc 3e1c 16bc 7375 11bd
00000330: ac52 c6bc 2cdc 51bc dceb 87bc f01c 93bc
00000340: 113a 01bd 6dd2 42bc c329 d0bc bd73 90bc
00000350: 902f 0fbd ab59 81bb 6cdf 06bc 4169 80bc
00000360: bbb9 9bbc ab5e b6bc a40d 13bd 3b3c 5bbc
00000370: 4082 1bbc 5575 05bd 37c9 e1bc 8743 23bd
00000380: 030d 6ebc 51eb c8bc af67 cbbb 28a9 0eba
00000390: a781 cfbc 0273 a4bc 9607 5cbc ddc9 5cbc
000003a0: f346 09bc 98f1 e2bc 1cbd 96bc 51eb 99bb
000003b0: c6b4 0abd 6812 e3bc 898e f1bc 24e6 d2bc
000003c0: befd 99bc 5082 50bc be04 e8bc a568 b7bc
000003d0: 0b93 adbc 44ac a0bc cc95 42bc 8b5e e8bc
000003e0: 3ac0 dabc b352 4ebc 439d 85bc 42ae b6bc
000003f0: 6707 9abc ce20 15bc 1c25 9ebc 9383 efbc
-0.019441687 -0.0073619843 -0.021607284 -0.018852936 -0.022466868 -0.01773429 -0.00736356 -0.034998763
-0.018468581 -0.021703482 -0.02050251 -0.025308607 0.0149009535 -0.031159583 -0.016367184 -0.018948382
-0.01117743 -0.015145164 -0.019272467 -0.018472731 0.011606929 -0.03322713 -0.040085863 -0.014790233
-0.025155937 -0.010230378 -0.015371669 -0.023413079 -0.01802459 -0.03152539 0.0006726864 -0.02876034
-0.0087197805 0.0055726897 -0.027248632 -0.016165404 0.008340615 -0.023093214 -0.023456763 -0.027420258
-0.02130805 -0.015134971 -0.018002123 -0.013138395 -0.00238137 -0.021344958 0.0030522149 -0.026411857
-0.0038910864 -0.008540545 -0.04144769 -0.02738642 -0.015155266 -0.025455996 -0.007638144 -0.023268424
-0.018540857 -0.018790856 -0.032830264 0.007072552 -0.013225851 -0.016974809 -0.014439163 -0.023617182
-0.035822142 -0.012049265 -0.024263782 -0.027346468 0.0020815977 -0.026967045 -0.026224446 -0.017473837
-0.02142118 -0.008239246 -0.019880025 -0.022585714 -0.034374565 -0.013835361 -0.030336542 -0.01632961
-0.026210124 -0.026005946 -0.012290345 -0.032973908 -0.005836707 -0.029868232 -0.028368728 -0.022751013
-0.013932147 -0.010820026 -0.025813604 -0.0065416754 -0.01988872 -0.024138566 -0.011538501 -0.017264228
-0.014689733 -0.028695192 -0.013000455 -0.016140398 -0.0125472825 -0.01641965 -0.011651394 -0.011229724
-0.036864977 -0.0318062 -0.021743055 -0.018235825 -0.013011249 -0.004252445 -0.013287501 -0.04222628
-0.007948643 -0.0073081227 -0.028469902 -0.023937955 -0.02710552 -0.016996365 -0.005027802 -0.024577245
-0.036101174 -0.008021268 -0.022654455 -0.016296789 0.0053802044 -0.034910124 -0.001717104 -0.023732942
-0.019847412 -0.0074135414 -0.02835675 -0.02204062 -7.528279e-05 -0.0013783659 -0.028312098 -0.025605185
-0.018862044 -0.025035009 -0.019262455 -0.029372178 -0.02082049 -0.010729893 -0.010555194 -0.04340448
-0.013395434 -0.037045006 -0.01632263 -0.011770448 -0.017229108 0.0054988116 -0.012921276 0.006686758
-0.017935712 -0.032301273 -0.00986848 -0.022002317 -0.03036796 -0.032667108 -0.013599054 -0.018011218
-0.03716818 -0.014564627 -0.032590557 -0.016667508 -0.026723001 -0.034412704 -0.022625072 -0.032444026
-0.026878808 -0.01451363 -0.0144115165 -0.02188055 -0.032311637 -0.014909179 -0.02106702 -0.010460854
-0.024064228 -0.02307713 -0.027911963 -0.005964184 -0.036225732 -0.009994129 -0.03337171 -0.026774734
-0.017770754 -0.023004113 -0.019502025 -0.022610597 -0.023988716 -0.026986064 -0.008023757 -0.024717046
-0.024425063 -0.04118836 -0.018170876 -0.012093872 -0.024265483 -0.0181597 -0.011866596 -0.029946428
-0.02535404 -0.022803951 -0.009162007 -0.0355124 -0.024209343 -0.012808841 -0.016591959 -0.017958134
-0.031549517 -0.01189099 -0.025410539 -0.017633313 -0.03495747 -0.003947457 -0.008231979 -0.015675189
-0.019009462 -0.022261938 -0.03590168 -0.013381059 -0.009491503 -0.0325826 -0.027561767 -0.03985932
-0.014529469 -0.02452627 -0.0062074284 -0.00054420764 -0.025330378 -0.020074371 -0.013429543 -0.013475862
-0.008378732 -0.027703092 -0.018400721 -0.0046972414 -0.033863805 -0.027718738 -0.029486911 -0.025744505
-0.018797752 -0.012726381 -0.028322574 -0.022388766 -0.02118828 -0.019613393 -0.011876535 -0.028365394
-0.026702989 -0.012592959 -0.01631034 -0.02229989 -0.018802358 -0.0091020595 -0.019304805 -0.029237544

network_body.linear_encoder.seq_layers.2.weight f4 [256, 256]
00000000: 0629 d63b 6f97 233c 77a4 7cbd 22c1 16bd
00000010: 034b 553d 7638 123d 8add 353d 3434 e8bd
00000020: 66a3 91bd a24d 10bd bf8f ed3b b23a 043d
00000030: 1afb 013d 8860 293d ce2d 903d 7d6a 1cbe
00000040: e055 523d e13f 0abd 9335 43bc 52c1 81bd
00000050: a3af 69bd 5bac 21bd f11a f4bc d687 7ebc
00000060: 1639 debd 1a99 93bd ba46 0e3d 2202 5d3d
00000070: 9776 e7bc 32f1 59bd 02cd 1bbd e352 973b
00000080: 2d7b 3ebd 9830 863c 0e17 dfbd bc8e ab3d
00000090: ba83 7cbd e383 883d d550 89bd 6bb5 233c
000000a0: 6a42 053d 0a23 22be dc39 7a3c b7f2 90bd
000000b0: 2f51 463d 614a 4d3d 2609 98bc 5a28 31be
000000c0: c563 df3c 12c8 abbd ae09 ca3d ec10 b0bd
000000d0: 1e95 313d 0fc8 12be 30ee 05bc 87e1 703d
000000e0: dcd1 e8bc a753 61bd f02c f2bb 263b bd3d
000000f0: 39c5 aa3d 28e4 16bd 8a63 3a3d f479 7dbd
00000100: 79b6 443c 287a 2eba 66bc b33c 8033 a4bd
00000110: 48cc 63bd 057d 87bd 725d eebc f36a 0dbe
00000120: 0011 0dbd d717 833d f143 25bc 14e1 9f3d
00000130: 09d8 2aba 8162 e7bc 1204 0bbe 05d0 b9ba
00000140: f8fb a53d 3f3f e23b 67e8 78bd c44e 1d3d
00000150: 70f2 253d 6828 993d 2267 033c 2b5d 8f3d
00000160: d85e 5dbd 1e72 b0bd 94f5 373d d830 913d
00000170: c9d4 21bd 1142 08bd bc0e f7bb 17b1 19bd
00000180: 5d7f d93b 3ff4 583c ab27 883d bbee 84bd
00000190: 5ba1 603b 0afb e13d 2c46 5abd 831c 303e
000001a0: ef07 35bd 87f9 093d 61e0 95bd 3eed 3abe
000001b0: 7ff4 143d 1ea9 733c 7b9b 883b b7b9 443d
000001c0: 7cbc 0a3d add5 af3c 519c 3bbd 7938 ba3d
000001d0: fe9f ba3c 1dbd 0bbd 1f88 bc3c 9865 11bd
000001e0: 173b 92bc bca1 70bb 01f1 943d e92e a83c
000001f0: 9e04 83bc f348 223d b1f4 2e3d 3287 61bd
00000200: f19a 833d 2eee a93d 6f64 2a3d 7787 c83d
00000210: f351 28bd 4b66 25bd 48c5 83bb 5e3f e13a
00000220: b79e 16bd 1cf4 483d 6628 4c3d dda2 ffbc
00000230: be76 013d dd17 ca3c 212e 263c 2eea e7bb
00000240: 87aa 13be 8f8f c3bc 69aa 213d 07e4 7b3d
00000250: e72e 223d 1e70 bcbc 40f5 5a3d a70f 1abe
00000260: 27e7 c3bb cd9e 0cbd 63dd 50bd 86b7 62bd
00000270: 2a0c 3b3d a114 3ebd 9ff8 59bd 63b9 bebc
00000280: 1956 aebd 7e5f 3dbd 4a16 2bbd 9e18 45bd
00000290: 6662 acbc 5946 94bd 08d3 d4bd 589c 7cbd
000002a0: d803 063d c600 c4bc 80c1 0bbd 792a ff3d
000002b0: 24c2 7f3d 4a5f 9dbc 80f6 d2bc 14f2 dbbd
000002c0: 9dc6 ff3b 7d50 663b bfab 36bd ac12 85bc
000002d0: d643 56bd 9d2e 0bbd a15a 75bd e4d3 67bd
000002e0: f0ec c63c d2ad 933d 8521 303e 9420 07bc
000002f0: 1bc9 823d 4aeb 0fbd 5230 adbd 2af0 043e
00000300: 8f60 c2bd 8cb1 0c3b 8479 9fbc 1429 893d
00000310: 1b2c c2bc 0a86 793c 4d7c a8bd 5dcb 52bd
00000320: 1911 c53c 57a0 113e 9b64 b93d df61 dfbd
00000330: 0bd1 6abd 7d6d 8dbc 7eff 793d 9752 b3bc
00000340: f2c3 dcbd 300d 54bc c61b 803d 59a4 763d
00000350: 747f 3b3d 1a45 55bb a7c8 eabd a0bd 09bd
00000360: 2b8e 15be 269e 84bd e4ee 2f3c 59d8 133d
00000370: c8be 4f3c c556 3a3d 6493 64bc ccc0 853d
00000380: 1261 2fbd 15e8 28bd 530f e1bd 1a9f c53d
00000390: 0d18 b1bc a43c acbd 6c94 02be 2ca9 423d
000003a0: fb6c 103d e8d1 873d 84bc 31bc ced9 30be
000003b0: 3549 f8bc 85ff fabd 84f3 22be 7045 c6bd
000003c0: b0be a63c 7fc3 c73c 6696 613a a1f9 d2bb
000003d0: 91cd 8dbd 44be 33bc 2c53 763d d4dc 52bd
000003e0: fbf8 093d cf44 52bc 7665 b3ba 8f4d a63d
000003f0: 399d f63b 276a f63c d327 563d 1b92 003d
0.006535652 0.009984835 -0.061680283 -0.03680528 0.05207349 0.035698377 0.04440073 -0.11338082
-0.07111244 -0.035230286 0.007249802 0.03228254 0.03173361 0.041351825 0.070399866 -0.15274997
0.051351428 -0.033752326 -0.011914629 -0.06335701 -0.057052266 -0.03947101 -0.029798003 -0.0155353155
-0.10850732 -0.07206936 0.03473542 0.053957112 -0.02825479 -0.053208537 -0.038037308 0.004618035
-0.04650419 0.016380593 -0.10893069 0.08376834 -0.06164906 0.066657804 -0.067048706 0.009991984
0.03253404 -0.15833679 0.015272584 -0.07077544 0.048417266 0.05011976 -0.01855905 -0.17300549
0.027269254 -0.0838777 0.098651275 -0.085969776 0.0433551 -0.14334129 -0.008174464 0.05880883
-0.028420381 -0.055011418 -0.007390611 0.09239797 0.083383985 -0.03683868 0.045505084 -0.06188388
0.0120063955 -0.0006655776 0.021940421 -0.08017635 -0.05561474 -0.066156425 -0.029097293 -0.13810329
-0.03444004 0.064010315 -0.010086999 0.07806602 -0.0006517177 -0.028245213 -0.13575771 -0.0014176375
0.081047 0.006904512 -0.06076851 0.038405195 0.04051441 0.0747841 0.008020194 0.07000192
-0.05404553 -0.08615516 0.044911936 0.07089394 -0.03950957 -0.03326613 -0.0075395983 -0.0375224
0.0066374973 0.013241827 0.06648191 -0.06490847 0.0034275863 0.1103421 -0.053289577 0.17198376
-0.04419702 0.033685233 -0.073181875 -0.18254563 0.036365982 0.014871864 0.0041689253 0.048028674
0.03387116 0.021464193 -0.04580337 0.090928026 0.022781368 -0.0341159 0.023014126 -0.035497278
-0.017850442 -0.0036717495 0.0727253 0.020530181 -0.015993413 0.03962035 0.042713825 -0.055060573
0.06426037 0.08297382 0.041599687 0.09791463 -0.041093778 -0.040380757 -0.0040213205 0.0017185023
-0.036772456 0.049060926 0.049843214 -0.031205589 0.031607382 0.024669582 0.010142834 -0.007077477
-0.1442052 -0.023872165 0.039469156 0.06149676 0.03959551 -0.02300268 0.053456545 -0.15045033
-0.0059784832 -0.03433113 -0.05099238 -0.055350803 0.045665897 -0.046406392 -0.05321562 -0.023281759
-0.085125156 -0.046233647 -0.041769303 -0.04811918 -0.021043014 -0.0723998 -0.103918135 -0.06167254
0.03271851 -0.02392615 -0.034120083 0.12459273 0.062441006 -0.019210476 -0.025752306 -0.10739532
0.007805659 0.003514319 -0.044597384 -0.016244255 -0.052310787 -0.03398 -0.059900884 -0.05659856
0.024282902 0.07210888 0.17200287 -0.008247513 0.06386014 -0.0351365 -0.08456482 0.1298224
-0.09491073 0.002146813 -0.019467123 0.06697288 -0.023702672 0.015229711 -0.082268335 -0.051463474
0.024056004 0.14221321 0.09052392 -0.10907339 -0.057328265 -0.017264122 0.061034672 -0.021889968
-0.10779561 -0.012942597 0.06255297 0.060215328 0.045775846 -0.0032542408 -0.11464053 -0.033628106
-0.14605014 -0.06475477 0.010738108 0.036094997 0.012679763 0.045492906 -0.013951156 0.06530914
-0.042817183 -0.041236956 -0.10989251 0.09649487 -0.021617914 -0.08410004 -0.12751931 0.047524616
0.035260182 0.06631833 -0.010848168 -0.17270586 -0.030308345 -0.12255768 -0.15913206 -0.09681213
0.020354599 0.024385212 0.000860548 -0.0064384495 -0.06923974 -0.010970656 0.060137913 -0.05148013
0.033684712 -0.012833788 -0.0013686854 0.08120262 0.0075260666 0.030079914 0.052284073 0.031389337
